android/src/main/python/beat_encoder_GA.tflite (tflite, 830668 bytes, 21 tensors)

beat_encoder/conv2d_1/BiasAdd/ReadVariableOp/resource f4 [32]
0.036372714 -0.08347253 -0.083601005 0.089202106 0.059028972 -0.03097996 0.13356778 0.07952576
0.026032658 0.031116026 0.038621552 0.028962076 0.17443672 -0.035852835 0.11241955 0.0
-0.03844491 -0.061302193 0.039672315 0.094561026 0.046712633 -0.005839535 0.062631585 0.05086901
0.08816723 0.037052393 0.0 0.047361273 0.23007797 -0.050164524 0.039807253 -0.048014455
00000000: 8efb 143d a5f3 aabd 0137 abbd 98af b63d
00000010: 5dc8 713d afc9 fdbc fec5 083e 67de a23d
00000020: 7142 d53c 09e7 fe3c a231 1e3d e041 ed3c
00000030: 8a9f 323e 6cda 12bd 393c e63d 0000 0000
00000040: 6978 1dbd 0218 7bbd 707f 223d 36a9 c13d
00000050: bf55 3f3d 9259 bfbb fd44 803d 065c 503d
00000060: 0591 b43d 40c4 173d 0000 0000 e5fd 413d
00000070: 8f99 6b3e 5179 4dbd ee0c 233d ceaa 44bd

beat_encoder/conv2d_2/BiasAdd/ReadVariableOp/resource f4 [64]
-0.08384909 -0.07572348 -0.15281554 -0.02555192 -0.27125776 -0.18218479 -0.2245355 -0.4037752
-0.06293678 -0.12818636 -0.016300537 0.04486301 -0.32414362 -0.32735422 -0.23669769 -0.16875458
-0.13078064 0.13682462 -0.46941355 0.054179158 -0.10829405 0.10647009 -0.12700212 0.001580832
-0.14664088 -0.19640523 -0.17233759 -0.28671905 -0.18840097 -0.1829811 -0.18193215 -0.03297527
-0.08582595 -0.31458834 -0.4990134 -0.21155925 0.0066160113 -0.3769763 -0.1067666 -0.10071549
-0.04319237 -0.07739622 -0.23090912 -0.17084205 -0.11813989 -0.06818755 -0.20387629 -0.3486019
-0.3470775 -0.13915461 -0.14933673 -0.4750463 0.011170333 0.1419829 -0.09264647 -0.38568875
-0.02149372 -0.080316514 -0.10221974 0.04115677 -0.07243033 -0.1347968 -0.2827286 -0.22026078
00000000: 12b9 abbd e914 9bbd ad7b 1cbe 4352 d1bc
00000010: 4ce2 8abe a68e 3abe a2ec 65be 9fbb cebe
00000020: 00e5 80bd 4943 03be b488 85bc 47c2 373d
00000030: 27f6 a5be f99a a7be e160 72be 00ce 2cbe
00000040: 5ceb 05be c11b 0c3e f956 f0be f7ea 5d3d
00000050: 45c9 ddbd fe0c da3d d80c 02be eb33 cf3a
00000060: 0729 16be 741e 49be 4479 30be d7cc 92be
00000070: 2fec 40be 665f 3bbe 6c4c 3abe 1411 07bd
00000080: 84c5 afbd b911 a1be af7e ffbe fda2 58be
00000090: 20cb d83b 0a03 c1be 72a8 dabd ec43 cebd
000000a0: 7cea 30bd e981 9ebd 7173 6cbe 38f1 2ebe
000000b0: 54f3 f1bd eaa5 8bbd f2c4 50be f37b b2be
000000c0: 24b4 b1be 8c7e 0ebe baeb 18be 4539 f3be
000000d0: c603 373c f763 113e 6fbd bdbd ff78 c5be
000000e0: 9913 b0bc fc7c a4bd 9558 d1bd 0094 283d
000000f0: 5a56 94bd 2c08 0abe cec1 90be 0b8c 61be

beat_encoder/conv2d_3/BiasAdd/ReadVariableOp/resource f4 [128]
-0.0858823 -0.32144025 -0.1504477 -0.10914345 0.04121046 -0.30501932 -0.015776306 -0.053790472
-0.12486713 0.10663181 -0.23501371 -0.35791782 -0.24967654 -0.32677582 -0.27868104 -0.1483189
-0.36603397 -0.25914308 -0.068868965 -0.029607084 -0.21532698 0.012600748 -0.17049433 -0.14519808
-0.5684909 -0.09865803 -0.25870314 -0.001341282 -0.15144435 -0.13463137 -0.105323315 -0.26427475
-0.16590631 -0.23208195 0.25737333 -0.25048566 -0.20892856 -0.09366958 -0.03432097 -0.5350661
-0.077703394 -0.24124287 -0.13022396 -0.31257632 -0.13197331 -0.30444416 0.06601425 -0.42085677
-0.3987232 -0.17430492 -0.1796952 -0.20492528 -0.26234877 -0.16080682 -0.33395138 -0.35283917
-0.025300976 -0.11831288 -0.13006891 -0.2464431 -0.15488748 0.002611962 -0.12025232 0.1131759
-0.3316925 -0.22024883 0.050762102 -0.060774792 -0.22146405 -0.25685918 -0.25113744 -0.22858341
-0.10896182 -0.35257238 -0.042899083 -0.5683107 -0.5478445 0.058544163 0.003118696 -0.3265566
-0.21748883 -0.083360076 -0.2748741 -0.20981532 -0.22483528 -0.08340985 -0.14044298 -0.47122136
-0.044941258 -0.27065083 -0.30626383 -0.23346122 -0.34055522 -0.24624689 0.04518205 -0.41568193
-0.26361206 -0.18785779 -0.009024333 -0.124252304 0.00024537157 -0.15735221 -0.05246896 -0.2750749
-0.23761387 -0.088463634 -0.29241616 -0.023010975 -0.4712196 -0.12598608 -0.51826024 -0.5049589
-0.38564363 -0.31997558 -0.019228168 -0.28190622 -0.21165082 -0.100994706 -0.3710986 -0.24251786
0.09380422 -0.01684362 -0.3579454 -0.13710788 -0.17834248 -0.05283811 -0.67080534 -0.30364594
00000000: 0fe3 afbd d193 a4be f60e 1abe 9a86 dfbd
00000010: 4dcc 283d 7e2b 9cbe 503d 81bc 6653 5cbd
00000020: 56ba ffbd c761 da3d 6fa7 70be 0141 b7be
00000030: 35ab 7fbe 294f a7be 48af 8ebe e9e0 17be
00000040: ce68 bbbe 67ae 84be 2c0b 8dbd 8e8a f2bc
00000050: ad7e 5cbe 5e73 4e3c 1196 2ebe ceae 14be
00000060: 9f88 11bf 390d cabd bd74 84be f5cd afba
00000070: 3a14 1bbe cedc 09be c0b3 d7bd 054f 87be
00000080: 58e3 29be e4a6 6dbe 70c6 833e a83f 80be
00000090: 5ef1 55be d6d5 bfbd 2594 0cbd 18fa 08bf
000000a0: f522 9fbd 5f08 77be 6e59 05be 010a a0be
000000b0: 0324 07be 1be0 9bbe 7b32 873d 8a7a d7be
000000c0: 7325 ccbe fd7c 32be 0502 38be efd7 51be
000000d0: 9452 86be 8baa 24be adfb aabe 56a7 b4be
000000e0: fe43 cfbc 064e f2bd c930 05be 945b 7cbe
000000f0: d39a 1ebe 732d 2b3b d946 f6bd c4c8 e73d
00000100: 99d3 a9be e988 61be eceb 4f3d fdee 78bd
00000110: 79c7 62be 0c83 83be 1695 80be c511 6abe
00000120: 6027 dfbd 5e84 b4be f3b6 2fbd cf7c 11bf
00000130: 8a3f 0cbf 01cc 6f3d 0963 4c3b 6d32 a7be
00000140: 64b5 5ebe b0b8 aabd 4cbc 8cbe d4d9 56be
00000150: 383b 66be c9d2 aabd 49d0 0fbe ed43 f1be
00000160: 5314 38bd bf92 8abe 9dce 9cbe 7510 6fbe
00000170: 415d aebe 2528 7cbe d010 393d 43d4 d4be
00000180: 29f8 86be cb5d 40be ccda 13bc fe77 febd
00000190: 37a5 8039 f020 21be b1e9 56bd 9ed6 8cbe
000001a0: 0d51 73be 6c2c b5bd 92b7 95be 8381 bcbc
000001b0: b243 f1be 7f02 01be b4ac 04bf fd44 01bf
000001c0: 1573 c5be d7d3 a3be 6484 9dbc 0356 90be
000001d0: feba 58be 50d6 cebd a300 bebe 9a56 78be
000001e0: 6d1c c03d a2fb 89bc 9f44 b7be 0266 0cbe
000001f0: 699f 36be c66c 58bd e6b9 2bbf 7b77 9bbe

beat_encoder/word_attention/BiasAdd/ReadVariableOp/resource f4 [50]
-0.018399647 0.12079187 -0.014912491 -0.19485676 -0.0988776 -0.11381925 0.2511913 -0.01583401
0.040761862 0.15372881 -0.16527547 0.09391033 -0.12757748 -0.18831599 -0.06543821 -0.037038755
-0.0826475 -0.0392715 0.034975428 0.20473534 -0.15255308 -0.018164912 0.15626435 0.21419425
-0.036277905 -0.15544468 -0.14651555 0.03996245 -0.06491681 -0.0869332 0.17436992 -0.14283143
-0.1852281 0.26446566 0.09793796 0.044194743 0.00055664947 0.12868795 -0.18177274 0.022721754
0.048480522 0.0059130318 -0.021128062 0.123826124 0.012158715 -0.025752623 -0.058562517 0.23252614
0.23315473 -0.19796786
00000000: dbba 96bc ba61 f73d 8553 74bc 8888 47be
00000010: 5780 cabd 111a e9bd 259c 803e 53b6 81bc
00000020: e9f5 263d 166b 1d3e f93d 29be 0f54 c03d
00000030: aca3 02be e8d5 40be 7804 86bd f3b5 17bd
00000040: 1843 a9bd 27db 20bd 6542 0f3d 24a6 513e
00000050: e036 1cbe 95ce 94bc c303 203e bd55 5b3e
00000060: 2498 14bd e42c 1fbe 2c08 16be aaaf 233d
00000070: 1bf3 84bd 090a b2bd 078e 323e 6742 12be
00000080: 6fac 3dbe 0b68 873e b293 c83d 8c05 353d
00000090: 1dec 113a c6c6 033e a222 3abe f922 ba3c
000000a0: 8393 463d 1bc2 c13b c214 adbc 8d98 fd3d
000000b0: 5935 473c 2af7 d2bc 40df 6fbd 551b 6e3e
000000c0: 1dc0 6e3e 16b8 4abe

beat_encoder/word_dense/BiasAdd/ReadVariableOp/resource f4 [50]
-0.04238852 -0.025922349 0.07170219 0.0025483265 -0.020255668 0.07429241 0.047073092 0.05850157
-0.03101051 -0.04547312 -0.0194647 0.0011773618 -0.0020847253 -0.04733173 -0.14466433 -0.036721107
0.11898177 0.064545475 -0.057248235 0.039173298 -0.012774533 0.062286276 0.11618002 -0.030114558
-0.014790216 0.17170075 -0.0206741 0.06392991 0.014326375 -0.0675378 0.011965172 -0.0014111683
-0.05768253 0.010535019 0.083793886 -0.013438582 -0.047479108 0.02600228 0.04877155 -0.063750215
-0.0050365534 -0.047063224 -0.025185138 -0.011180136 -0.04047432 -0.04057611 0.035344865 0.053667173
-0.038196363 -0.044981614
00000000: 969f 2dbd 1b5b d4bc 99d8 923d d301 273b
00000010: 37ef a5bc 9e26 983d b7cf 403d 589f 6f3d
00000020: c109 febc 0642 3abd 6f74 9fbc b551 9a3a
00000030: e39f 08bb ebde 41bd e322 14be df68 16bd
00000040: b7ac f33d 6b30 843d 207d 6abd 2e74 203d
00000050: 464c 51bc e51f 7f3d caef ed3d ceb2 f6bc
00000060: aa52 72bc 52d2 2f3e bb5c a9bc afed 823d
00000070: 2cb9 6a3c 4251 8abd 9209 443c f3f6 b8ba
00000080: 8444 6cbd 139b 2c3c 219c ab3d 802d 5cbc
00000090: 7479 42bd bc02 d53c adc4 473d 798f 82bd
000000a0: ac09 a5bb 5ec5 40bd 1051 cebc e42c 37bc
000000b0: 67c8 25bd 2333 26bd c7c5 103d 1cd2 5b3d
000000c0: ca73 1cbd a43e 38bd

beat_encoder/batch_norm_1/FusedBatchNormV3 f4 [32]
-0.96499866 -0.19807348 -0.0006975593 -3.018692 -0.7367758 -0.1229596 -2.990673 -0.31974685
-0.52261674 -0.5792666 -0.83693343 -0.40852806 -3.4326048 -0.0014595421 -2.3758175 0.080057204
-0.0049090385 -0.0027415077 -1.224489 -2.0070891 -1.0152178 0.0001945496 -0.7641305 -1.1983926
-0.6427586 -0.030531222 0.1161008 -0.9979382 -4.489069 0.0012260481 -0.9151175 -0.0019341783
00000000: 270a 77bf c6d3 4abe 6adc 36ba 4032 41c0
00000010: 579d 3cbf 3ed2 fbbd 3067 3fc0 dcb5 a3be
00000020: 36ca 05bf d14a 14bf 4541 56bf 972a d1be
00000030: ccaf 5bc0 1b4e bfba 650d 18c0 08f5 a33d
00000040: 00dc a0bb deaa 33bb 0ebc 9cbf 2674 00c0
00000050: a8f2 81bf 0300 4c39 0e9e 43bf ee64 99bf
00000060: d48b 24bf 9d1c fabc 42c6 ed3d e178 7fbf
00000070: 74a6 8fc0 59b3 a03a 2445 6abf 4184 fdba

beat_encoder/batch_norm_1/FusedBatchNormV31 f4 [32]
15.116086 8.322764 28.411036 30.719812 21.365805 31.29768 21.670311 3.9737942
22.367813 27.880894 27.90428 27.869814 19.92551 26.092749 17.891336 31.622776
32.719624 27.867466 32.32074 20.831772 17.702402 31.623707 13.161414 32.545525
28.976807 0.67372394 31.622776 19.435516 19.508904 12.342437 32.993496 28.756134
00000000: 7ddb 7141 0b2a 0541 cd49 e341 2dc2 f541
00000010: 2bed aa41 a661 fa41 cc5c ad41 a552 7e40
00000020: 48f1 b241 120c df41 f73b df41 61f5 de41
00000030: 7267 9f41 f3bd d041 7521 8f41 72fb fc41
00000040: e5e0 0242 92f0 de41 7048 0142 78a7 a641
00000050: 859e 8d41 5afd fc41 2795 5241 9e2e 0242
00000060: 80d0 e741 2c79 2c3f 72fb fc41 f07b 9b41
00000070: 3c12 9c41 9f7a 4541 57f9 0342 900c e641

beat_encoder/batch_norm_2/FusedBatchNormV3 f4 [64]
-0.05387014 -0.20846021 -0.10795608 -0.24099183 -0.06519578 -0.26741332 -0.40301305 -0.065442294
-0.41406545 -0.37584937 -0.3612653 -0.13553196 0.064673185 -0.13496925 -0.6140904 -0.2585925
-0.43334943 -0.8146023 -0.020630568 -0.50801724 -0.20669973 -0.6212643 -0.29961735 -0.5189288
-0.11327316 -0.045205683 0.025196403 -0.49577177 -0.28157723 -0.14547631 -0.08832182 -0.2885081
-0.48890918 -0.024507493 -0.0053583533 -0.34579724 -0.45509982 -0.42094243 -0.36642006 -0.42165953
-0.32904562 -0.20079204 -0.31610808 -0.24840869 -0.12783709 -0.18062502 -0.31015778 -0.15323094
-0.3668205 -0.22341265 -0.48656446 -0.095821306 -0.42973906 -0.5488401 -0.021088362 0.00016365945
0.009465337 -0.36515594 -0.22072586 -0.28978467 -0.53038925 -0.055128902 -0.050268844 -0.09674782
00000000: f0a6 5cbd 9876 55be 1418 ddbd 90c6 76be
00000010: 5d85 85bd 66ea 88be ba57 cebe 9c06 86bd
00000020: 6300 d4be 546f c0be c4f7 b8be e4c8 0abe
00000030: 6073 843d 6135 0abe 0735 1dbf 3c66 84be
00000040: fadf ddbe c789 50bf 7001 a9bc 6b0d 02bf
00000050: 18a9 53be 2d0b 1fbf 7267 99be 85d8 04bf
00000060: c2fb e7bd 9829 39bd b068 ce3c ccd5 fdbe
00000070: e42a 90be bef7 14be 12e2 b4bd 55b7 93be
00000080: 4e52 fabe f0c3 c8bc 2095 afbb 560c b1be
00000090: d802 e9be c485 d7be 699b bbbe c2e3 d7be
000000a0: ab78 a8be 6e9c 4dbe ebd8 a1be d95e 7ebe
000000b0: bae7 02be c4f5 38be 00cd 9ebe 92e8 1cbe
000000c0: e6cf bbbe 49c6 64be fa1e f9be f63d c4bd
000000d0: c206 dcbe c980 0cbf 80c1 acbc 009c 2b39
000000e0: 8014 1b3c b8f5 babe f605 62be a85e 94be
000000f0: 97c7 07bf d8ce 61bd b4e6 4dbd b923 c6bd

beat_encoder/batch_norm_2/FusedBatchNormV31 f4 [64]
1.3471357 0.89661354 0.8940888 2.1395428 0.16896074 0.6150151 1.7153708 0.37504667
0.6105319 2.3495457 1.0404428 0.3871098 0.11403353 0.95546836 2.765081 1.5727738
1.1348771 1.1561661 0.16873887 1.1766819 3.358744 1.9368857 0.58939064 3.6899557
3.2756789 1.0710115 1.2530669 0.32264054 0.5353927 0.66423386 0.60220844 2.4129436
1.2381918 0.19771312 1.1118332 0.49869594 0.5387941 1.2272493 1.298777 1.3954118
0.22729328 0.5300767 0.6555292 2.832164 1.0205238 1.7675862 0.87115717 0.8938804
0.8344095 0.46165925 1.2870046 0.125547 0.76338917 1.9472127 1.2211316 0.06883708
3.2553923 1.9368674 0.5758853 2.314246 1.4385183 2.286549 0.15625249 0.2160216
00000000: f16e ac3f 7788 653f 01e3 643f 45ee 0840
00000010: 0b04 2d3e a171 1d3f 4591 db3f 1e06 c03e
00000020: d24b 1c3f f55e 1640 3b2d 853f 4133 c63e
00000030: 698a e93d 9399 743f 16f7 3040 a750 c93f
00000040: a743 913f 40fd 933f e2c9 2c3e 839d 963f
00000050: a9f5 5640 dfeb f73f 4ee2 163f 3c28 6c40
00000060: b9a4 5140 e816 893f 7f64 a03f 2431 a53e
00000070: 7f0f 093f 3b0b 2a3f 552a 1a3f ab6d 1a40
00000080: 127d 9e3f 4f75 4a3e 8d50 8e3f 1355 ff3e
00000090: 69ee 093f 8116 9d3f 533e a63f db9c b23f
000000a0: 92bf 683e 1bb3 073f c3d0 273f 2d42 3540
000000b0: 86a0 823f 4440 e23f 2804 5f3f 59d5 643f
000000c0: dc9b 553f 9a5e ec3e 91bc a43f 658f 003e
000000d0: 796d 433f 443e f93f 0a4e 9c3f 74fa 8c3d
000000e0: 5958 5040 45eb f73f 386d 133f 9b1c 1440
000000f0: 5e21 b83f d256 1240 a700 203e c434 5d3e

beat_encoder/batch_norm_3/FusedBatchNormV3 f4 [128]
-0.11307226 -0.33887345 -0.35591418 -0.20222926 -0.47640604 -0.26609525 -0.36984313 -0.26486793
-0.41709477 -0.28106096 -0.19809797 -0.17355281 -0.23510346 -0.17617872 -0.1840623 -0.27476683
-0.27219898 -0.40770787 -0.37741563 -0.2439554 -0.2812771 -0.47112882 -0.2530304 -0.45983467
-0.23040695 -0.17251572 -0.23499292 -0.29143593 -0.32102045 -0.1922137 -0.28145036 -0.25227657
-0.41773844 -0.29990914 -0.40584716 -0.25007388 -0.252749 -0.2995287 -0.30344197 -0.15383783
-0.34775424 -0.30734807 -0.3293149 -0.12678204 -0.3589975 -0.21748962 -0.4255738 -0.34897035
-0.22381067 -0.3343709 -0.2611044 -0.42201108 -0.42917177 -0.25638613 -0.5497972 -0.32164505
-0.32459873 -0.40026587 -0.38755196 -0.24590504 -0.3400338 -0.48881108 -0.3102603 -0.39931154
-0.17946318 -0.34916198 -0.17074281 -0.22434291 -0.25154757 -0.4663285 -0.46305752 -0.30998582
-0.31547898 -0.34003723 -0.19943048 -0.134211 -0.25108543 -0.49216446 -0.18680313 -0.34527257
-0.400018 -0.45282188 -0.32772765 -0.17861822 -0.39550012 -0.35385767 -0.26494917 -0.20549446
-0.2474857 -0.16170539 -0.32502154 -0.40314132 -0.3745607 -0.12130016 -0.5728203 -0.38705248
-0.4752404 -0.26271662 -0.2986724 -0.37482274 -0.33470955 -0.34191346 -0.3656946 -0.26962268
-0.37991583 -0.37864378 -0.23712024 -0.33209637 -0.22056627 -0.2472226 -0.30808094 -0.13556242
-0.2934329 -0.27077764 -0.3176425 -0.21865097 -0.27406472 -0.17319946 -0.26239756 -0.25403154
-0.29218093 -0.29870027 -0.33530486 -0.2990107 -0.31409365 -0.34277228 -0.123145215 -0.18801002
00000000: 6e92 e7bd d280 adbe 623a b6be 3015 4fbe
00000010: 7eeb f3be a33d 88be 145c bdbe c59c 87be
00000020: 728d d5be 39e7 8fbe 32da 4abe d4b7 31be
00000030: f6be 70be 3268 34be d47a 3cbe 3dae 8cbe
00000040: aa5d 8bbe 16bf d0be 9f3c c1be 72cf 79be
00000050: 8d03 90be cc37 f1be 338d 81be 736f ebbe
00000060: cdef 6bbe f6a7 30be fca1 70be 1737 95be
00000070: cb5c a4be abd3 44be 431a 90be 652a 81be
00000080: d0e1 d5be b18d 99be 33cb cfbe af09 80be
00000090: 5168 81be d35b 99be bf5c 9bbe aa87 1dbe
000000a0: d80c b2be ba5c 9dbe f69b a8be 27d3 01be
000000b0: 85ce b7be 99b5 5ebe cfe4 d9be 3eac b2be
000000c0: a02e 65be aa32 abbe 7aaf 85be d611 d8be
000000d0: 67bc dbbe 0b45 83be 82bf 0cbf a9ae a4be
000000e0: ce31 a6be a6ef ccbe 366d c6be 88ce 7bbe
000000f0: e918 aebe 7245 fabe 70da 9ebe 9072 ccbe
00000100: 32c5 37be 5cc5 b2be 34d7 2ebe 26ba 65be
00000110: d8ca 80be 9cc2 eebe e015 edbe 76b6 9ebe
00000120: 7686 a1be 5c19 aebe 8137 4cbe 9c6e 09be
00000130: 458e 80be fbfc fbbe 5249 3fbe 91c7 b0be
00000140: 29cf ccbe 45d8 e7be ebcb a7be b2e7 36be
00000150: fe7e cabe d52c b5be 6ba7 87be 246d 52be
00000160: e46c 7dbe 1996 25be 3969 a6be 8a68 cebe
00000170: 6cc6 bfbe 386c f8bd 5aa4 12bf be2b c6be
00000180: b652 f3be cb82 86be 97eb 98be c4e8 bfbe
00000190: 0d5f abbe 480f afbe 533c bbbe fc0b 8abe
000001a0: 5484 c2be 99dd c1be a6cf 72be 8908 aabe
000001b0: 20dc 61be ec27 7dbe c9bc 9dbe e0d0 0abe
000001c0: d63c 96be 5ea3 8abe 0aa2 a2be 0ae6 5fbe
000001d0: 3652 8cbe 335b 31be f958 86be 6c10 82be
000001e0: bd98 95be 3eef 98be 14ad abbe ee17 99be
000001f0: e2d0 a0be d97f afbe 8f33 fcbd b385 40be

beat_encoder/batch_norm_3/FusedBatchNormV31 f4 [128]
0.16561994 0.3091253 0.35066226 0.25747862 0.20336898 0.11576593 0.35977164 0.19370525
0.20522502 0.49526134 0.36081195 0.19961575 0.47671303 0.20130233 0.15145347 0.33008397
0.19304888 0.1747653 0.27196237 0.32514054 0.33243212 0.15914993 0.51408035 0.28171137
0.1097555 0.15505855 0.08690012 0.58811885 0.41580287 0.22964084 0.4785778 0.24047124
0.40963712 0.28250468 0.38861287 0.26522958 0.38191235 0.40442616 0.6043735 0.13786162
0.17539984 0.24822801 0.23280357 0.17689846 0.33085597 0.3674896 0.33475706 0.18226217
0.1586201 0.13938764 0.17190033 0.23320043 0.1654854 0.3492531 0.2590816 0.21936531
0.30879667 0.33388823 0.30966094 0.21197926 0.31800732 0.23578314 0.1988865 0.33944795
0.1639468 0.26410326 0.8583421 0.33606243 0.37317032 0.26035932 0.29347003 0.2933934
0.2119678 0.24453653 0.33621886 0.095112815 0.21533877 0.25859636 0.4041719 0.20556141
0.3656257 0.37277335 0.263143 0.16888472 0.3478967 0.24503383 0.24386887 0.22036608
0.43264464 0.11712145 0.20617545 0.17843163 0.23115328 0.2950121 0.28540403 0.1133575
0.14108406 0.21304975 0.34674594 0.36493215 0.17546837 0.3090531 0.44292048 0.2243134
0.14230786 0.41097707 0.12582767 0.334285 0.19657965 0.32608545 0.16702263 0.09048301
0.14752342 0.25329027 0.520595 0.26674113 0.23616207 0.19463986 0.35526502 0.44642562
0.5511742 0.55795866 0.33682507 0.20145455 0.37048668 0.45211062 0.17222671 0.26231265
00000000: 4698 293e ac45 9e3e 018a b33e 3dd4 833e
00000010: f53f 503e b016 ed3d fd33 b83e ab5a 463e
00000020: 8226 523e e592 fd3e 58bc b83e 1268 4c3e
00000030: bb13 f43e 3322 4e3e 9e16 1b3e c400 a93e
00000040: 9bae 453e adf5 323e a73e 8b3e d278 a63e
00000050: 8b34 aa3e 33f8 223e c59a 033f 793c 903e
00000060: 7ec7 e03d abc7 1e3e b1f8 b13d f58e 163f
00000070: 1de4 d43e f826 6b3e 2608 f53e 183e 763e
00000080: f5bb d13e 74a4 903e 44f8 c63e 2ccc 873e
00000090: 048a c33e f210 cf3e 39b8 1a3f 992b 0d3e
000000a0: 049c 333e 7c2f 7e3e 0f64 6e3e df24 353e
000000b0: f465 a93e 9927 bc3e 4765 ab3e efa2 3a3e
000000c0: 4f6d 223e a2bb 0e3e a406 303e 18cc 6e3e
000000d0: 0175 293e 4dd1 b23e 58a6 843e 4da1 603e
000000e0: 991a 9e3e 66f3 aa3e e18b 9e3e 1711 593e
000000f0: dbd1 a23e 2371 713e e7a8 4b3e 1fcc ad3e
00000100: ace1 273e 8b38 873e 4fbc 5b3f 6010 ac3e
00000110: 2e10 bf3e d14d 853e b441 963e a937 963e
00000120: 160e 593e c967 7a3e e124 ac3e 82ca c23d
00000130: c481 5c3e be66 843e 9fef ce3e b17e 523e
00000140: 4b33 bb3e 26dc be3e aeba 863e 1ef0 2c3e
00000150: 841f b23e 26ea 7a3e c3b8 793e a5a7 613e
00000160: 9983 dd3e 5fdd ef3d a81f 533e c8b6 363e
00000170: 72b3 6c3e d30b 973e 7a20 923e fa27 e83d
00000180: 5778 103e b729 5a3e af88 b13e 63d8 ba3e
00000190: fbad 333e 353c 9e3e 79c6 e23e 69b2 653e
000001a0: 27b9 113e 966b d23e f8d8 003e 6727 ab3e
000001b0: 2d4c 493e acf4 a63e fb07 2b3e 284f b93d
000001c0: 6110 173e 43af 813e b745 053f 4b92 883e
000001d0: 78d4 713e ac4f 473e 4ce5 b53e e691 e43e
000001e0: c119 0d3f 61d6 0e3f 5674 ac3e 1a4a 4e3e
000001f0: 6eb0 bd3e 0b7b e73e 335c 303e d84d 863e

beat_encoder/word_attention/MatMul f4 [50, 50]
0.234927 -0.03816661 0.026279824 0.14827257 0.06382736 0.21463978 0.22978956 0.3657729
0.2588688 0.08442011 0.0727481 0.016465157 0.27600244 0.0525466 -0.1555626 -0.13021447
0.11450479 -0.16231066 0.08993082 -0.13247849 0.054436374 -0.105826765 -0.21331477 -0.13551491
0.17178497 -0.044823717 0.08125683 0.008723887 -0.27253315 -0.11648483 -0.03461948 -0.024188023
0.100530446 0.18698531 0.31180584 -0.3071473 0.14882879 0.19832063 0.102217905 0.13779666
-0.12829123 0.0262043 -0.14888757 -0.030646475 0.1285966 -0.11139327 -0.38084388 0.34349668
0.2615468 -0.0004723493 0.23467259 0.2656237 0.040613748 0.30527678 0.34288073 0.29975837
0.19896036 0.13825016 -0.029161531 -0.27430254 0.23118067 0.24034595 0.0032967718 0.033888433
0.17457469 -0.16387445 -0.07787678 -0.058966238 0.10961162 0.06482503 0.61475676 0.13422324
-0.07225012 0.0316352 -0.014725839 0.13410583 0.20587356 -0.106723025 -0.17375918 -0.10792101
-0.14502054 -0.25429836 -0.23884979 0.15952663 0.604411 -0.123063885 0.005891031 -0.0065280497
-0.014625389 0.26448464 0.028995343 -0.0740956 0.44017696 0.2646688 0.087516055 0.32457575
-0.2571612 -0.010469892 0.28671348 0.04086941 -0.23576048 -0.23783298 -0.037686676 -0.16391301
-0.04775082 -0.28371868 -0.18111724 0.07475168 0.004814607 0.052163072 0.10563544 -0.18272297
-0.050496455 -0.13900557 -0.2920096 0.055477597 -0.062881656 0.25325397 -0.088773645 0.2627577
0.05339426 -0.053950142 -0.11514957 0.0975765 -0.006696789 0.14378367 -0.50723666 -0.05784698
0.2725819 0.12453636 0.03560885 0.956918 0.22267137 0.056815002 -0.14108907 0.23870915
-0.01860255 -0.08214928 -0.035541974 0.012179599 -0.22438733 -0.06923722 -0.1471843 -0.1329094
-0.096867576 0.041145124 0.3148626 -0.2438468 0.10040602 0.031381004 -0.033852536 -0.063419946
-0.116583556 -0.28345785 -0.2898028 -0.20460653 0.14698195 -0.22794975 -0.1015961 -0.451299
0.069183156 -0.060462225 0.23829919 0.041038442 -0.09162571 0.13944598 -0.030808989 0.028010841
-0.18340833 -0.069095485 0.3919901 -0.23755999 -0.22593896 -0.122451305 -0.20227894 -0.25597492
0.14905873 0.0038799678 -0.0871163 -0.28649864 -0.07040997 -0.3639974 0.07202175 -0.012379911
-0.1627404 -0.22376446 -0.09050842 -0.17327604 -0.074987955 -0.035475764 -0.035147376 -0.17257771
0.14342082 -0.36488047 -0.40133107 -0.1480406 -0.43560734 0.21314757 -0.23200805 -0.35598195
-0.40504533 -0.1646501 -0.09948343 -0.62446064 -0.13617212 -0.03831943 0.1626874 -0.21948734
-0.29528117 -0.07695183 -0.13862279 -0.23351246 -0.15348767 -0.15469088 0.2085271 -0.10215057
-0.021340126 -0.4456735 -0.1704619 -0.5343927 -0.16201402 -0.0017468043 0.07917678 0.04222505
-0.114527784 -0.25789872 -0.08952911 -0.13152884 -0.56965446 0.22777714 -0.07144187 0.040090855
-0.20205034 -0.505063 -0.035487127 -0.4663643 -0.09267575 -0.19814008 0.04459855 -0.22051682
-0.21898763 0.098487586 0.24796695 0.114006124 -0.051285293 -0.50584686 -0.44105896 -0.20340359
-0.24569617 0.056231245 -0.0056748833 0.11180417 -0.49063113 0.107229784 0.05492542 0.15083742
00000000: b490 703e 9754 1cbd c948 d73c c4d4 173e
00000010: ebb7 823d 88ca 5b3e f44d 6b3e 9646 bb3e
00000020: 748a 843e 73e4 ac3d f5fc 943d f0e1 863c
00000030: 3150 8d3e 1b3b 573d cd4b 1fbe f156 05be
00000040: 7d81 ea3d c434 26be a62d b83d 71a8 07be
00000050: adf8 5e3d b4bb d8bd 306f 5abe 6cc4 0abe
00000060: 66e8 2f3e 1399 37bd fb69 a63d a2ee 0e3c
00000070: 7789 8bbe 998f eebd 28cd 0dbd f625 c6bc
00000080: e8e2 cd3d 1479 3f3e 04a5 9f3e 6942 9dbe
00000090: 9366 183e 9014 4b3e 9f57 d13d 911a 0d3e
000000a0: c75e 03be 66aa d63c fc75 18be 510e fbbc
000000b0: d4ae 033e 2822 e4bd f8fd c2be ccde af3e
000000c0: 76e9 853e a6a5 f7b9 034e 703e d4ff 873e
000000d0: 9a5a 263d 3d4d 9c3e 108e af3e ee79 993e
000000e0: 44bc 4b3e 7391 0d3e 2ae4 eebc 6271 8cbe
000000f0: a0ba 6c3e 401d 763e a70e 583b 99ce 0a3d
00000100: b5c3 323e b4ce 27be dc7d 9fbd 9586 71bd
00000110: 0f7c e03d fcc2 843d b360 1d3f d171 093e
00000120: dff7 93bd e993 013d a544 71bc 0a53 093e
00000130: 85d0 523e 9a91 dabd eded 31be b105 ddbd
00000140: 4480 14be 6533 82be 0a95 74be f35a 233e
00000150: aeba 1a3f eb08 fcbd 8d09 c13b 40e9 d5bb
00000160: 549f 6fbc 886a 873e a487 ed3c 6fbf 97bd
00000170: e05e e13e ab82 873e 9e3b b33d cb2e a63e
00000180: a2aa 83be e989 2bbc 1ccc 923e af66 273d
00000190: 326b 71be 7d8a 73be 585d 1abd d0d8 27be
000001a0: 5d96 43bd 9343 91be cc76 39be 6917 993d
000001b0: dac3 9d3b f2a8 553d 6557 d83d bb1b 3bbe
000001c0: 5fd5 4ebd 7a57 0ebe 4882 95be 7a3c 633d
000001d0: 19c8 80bd 81aa 813e f5ce b5bd 2d88 863e
000001e0: f1b3 5a3d d3fa 5cbd 8ad3 ebbd 30d6 c73d
000001f0: bd70 dbbb 073c 133e 43da 01bf f4f0 6cbd
00000200: db8f 8b3e eb0c ff3d 96da 113d 94f8 743f
00000210: f703 643e d9b6 683d a779 10be 2c70 743e
00000220: 6064 98bc e23d a8bd 7694 11bd f18c 473c
00000230: cbc5 65be 3ecc 8dbd 7bb7 16be 6719 08be
00000240: 8262 c6bd ca87 283d ac35 a13e fab2 79be
00000250: aca1 cd3d 5e89 003d f5a8 0abd 51e2 81bd
00000260: 5cc3 eebd 6321 91be 0861 94be 6084 51be
00000270: 7082 163e a96b 69be 9e11 d0bd aa10 e7be
00000280: e6af 8d3d 3da7 77bd b404 743e ed17 283d
00000290: 43a6 bbbd edca 0e3e 2263 fcbc fe76 e53c
000002a0: 65cf 3bbe ef81 8dbd edb2 c83e ed42 73be
000002b0: 8b5c 67be c0c7 fabd 3622 4fbe 250f 83be
000002c0: daa2 183e 0f47 7e3b 086a b2bd f3af 92be
000002d0: 1a33 90bd de5d babe 2480 933d 1cd5 4abc
000002e0: 6ba5 26be 8322 65be 7a5c b9bd 466f 31be
000002f0: 4993 99bd 094f 11bd b2f6 0fbd 36b8 30be
00000300: e8dc 123e 9dd1 babe 447b cdbe f497 17be
00000310: ed07 dfbe 5b43 5a3e 8593 6dbe 4443 b6be
00000320: 1a62 cfbe 099a 28be f8bd cbbd a7dc 1fbf
00000330: b470 0bbe d6f4 1cbd 8797 263e 4ac1 60be
00000340: 182f 97be ec98 9dbd 22f3 0dbe e41d 6fbe
00000350: df2b 1dbe 4967 1ebe 2188 553e 5134 d1bd
00000360: 7dd1 aebc 512f e4be 908d 2ebe f6cd 08bf
00000370: 01e7 25be 07f5 e4ba 7027 a23d 2df4 2c3d
00000380: 8b8d eabd 4d0b 84be 0a5b b7bd 7faf 06be
00000390: e0d4 11bf 693e 693e 1d50 92bd 4f36 243d
000003a0: 49e6 4ebe cf4b 01bf f35a 11bd 4dc7 eebe
000003b0: c9cc bdbd 3ce5 4abe f8ac 363d 29cf 61be
000003c0: 4b3e 60be dcb3 c93d 0ceb 7d3e 0b7c e93d
000003d0: 8710 52bd 2e7f 01bf 7bd2 e1be 0849 50be
000003e0: c797 7bbe bc52 663d 5ff4 b9bb 96f9 e43d
000003f0: 0134 fbbe 4a9b db3d 7af9 603d 2075 1a3e

beat_encoder/word_attention/MatMul_1 f4 [1, 50]
0.3211027 0.16288827 -0.044478394 0.073017806 0.16687189 0.14324902 -0.08051145 -0.11299413
-0.1871573 -0.25299525 0.10960493 -0.17111544 0.0886504 0.19257966 -0.053927753 -0.12541649
-0.10533298 0.08692092 -0.14206743 -0.08274312 0.05138926 0.07280775 -0.06432234 -0.35682237
0.3275381 -0.05091863 0.054870185 -0.16583583 -0.08085416 0.14281762 -0.0753009 0.06376973
0.16541763 -0.26088575 -0.10400466 0.086043775 0.14510384 0.14216964 -0.118090205 0.11715488
-0.21564226 -0.03191123 -0.4378014 0.14675662 0.057091694 -0.071632884 -0.1059527 -0.16013817
-0.09269825 0.06622931
00000000: 9367 a43e 2fcc 263e fa2e 36bd 5c8a 953d
00000010: 77e0 2a3e dfaf 123e 30e3 a4bd 7769 e7bd
00000020: 2aa6 3fbe 9888 81be 8d78 e03d e338 2fbe
00000030: 578e b53d 9a33 453e 59e3 5cbd 2e6d 00be
00000040: d1b8 d7bd 9803 b23d 207a 11be 3a75 a9bd
00000050: 8b7d 523d 3b1c 953d 6ebb 83bd 6cb1 b6be
00000060: 13b3 a73e 0e90 50bd 8fbf 603d ded0 29be
00000070: de96 a5bd c83e 123e 5c37 9abd b499 823d
00000080: 3d63 293e d192 85be 6500 d5bd b837 b03d
00000090: 1a96 143e eb94 113e 47d9 f1bd e6ee ef3d
000000a0: 53d1 5cbe 5ab5 02bd 8127 e0be 5e47 163e
000000b0: fbd8 693d 43b4 92bd bbfd d8bd 43fb 23be
000000c0: 95d8 bdbd 3ca3 873d

beat_encoder/word_dense/Tensordot/MatMul f4 [50, 50]
0.025358064 0.10881325 -0.0471879 -0.09013811 -0.017695244 -0.46973225 0.08176361 -0.2558371
0.09037279 0.14976798 0.05179943 0.3553263 -0.29214284 -0.20275012 -0.31332353 0.027447755
-0.02294876 0.14260294 -0.08047273 -0.010292518 0.11751694 -0.2680437 0.13104376 0.082914636
-0.38979727 0.3204513 0.08502556 -0.13486247 0.09118028 0.21516919 0.22120228 -0.095122315
-0.112252064 -0.08676009 0.05032803 -0.38844952 0.038054775 0.17465186 -0.19931152 -2.8632043e-05
0.2174127 -0.34285748 0.2571965 -0.16421303 0.1518052 0.09591566 -0.13310722 0.10671791
-0.058863297 -0.06505224 0.062589556 -0.36893266 0.1271013 0.16774076 -0.20604855 -0.058248416
0.2662458 -0.07085532 -0.18261056 -0.3364007 -0.06119136 0.31719592 0.20460188 -0.025043897
-0.0707107 -0.16639365 0.034661632 0.14684233 -0.4690987 -0.05548033 0.3206009 0.12900503
0.3333228 0.23783235 -0.28652084 -0.32199785 0.17158657 -0.054633148 -0.008627907 -0.3326996
-0.12829651 -0.026274431 0.08167434 -0.115636386 -0.2631016 -0.29402876 0.19293198 0.08269816
-0.107765675 -0.10679326 -0.21745346 0.10433571 0.08430381 -0.16138278 -0.303044 -0.14215383
-0.18558559 0.12889342 0.1899328 -0.103520915 0.14585085 0.17195636 0.13004597 0.13026826
0.18878917 0.026592134 -0.18377624 -0.040491097 -0.051693782 0.5389787 -0.046453267 0.33379957
-0.1450629 0.2129011 0.29747438 0.17011175 0.05169685 -0.22090663 0.01239356 -0.0825746
0.6030788 -0.038000308 -0.16805252 0.17494434 -0.22345869 0.046898875 -0.3482176 -0.27528155
0.4339731 0.14739046 0.07182756 -0.007202083 -0.35639828 0.1476397 0.010821229 0.1724863
-0.039518673 -0.19602339 -0.054624226 -0.25946224 -0.17164443 -0.06978682 -0.37873238 -0.10705679
-0.16113019 0.32035252 0.56243277 -0.17789644 -0.04126285 0.19360577 -0.19110928 0.054214135
-0.33961314 0.08097228 0.06781302 -0.18102825 -0.14416434 0.2447168 0.12528145 -0.04306091
0.090300426 -0.050899867 0.18090233 -0.10763913 -0.4351103 0.20572956 -0.19809487 0.03835173
-0.050988145 -0.23944366 -0.45767918 0.14103124 0.35183296 0.15008175 -0.5802683 0.2818306
0.23522124 0.13029698 -0.23349047 -0.2840038 -0.26372877 -0.53885865 -0.14184664 -0.24638298
-0.26661903 -0.16349816 0.17982768 0.22361644 0.24765399 -0.11786756 0.28199133 -0.11936795
-0.080053814 -0.05226175 0.14135434 0.020781344 0.33862314 -0.23324966 -0.2862946 -0.108229704
-0.089111105 0.2332592 -0.6815464 0.12593664 0.018090863 -0.11941872 0.07198662 0.016089706
-0.015854893 -0.12604275 0.15419696 -0.18151562 -0.3487096 0.1629268 -0.5378648 0.09812902
0.027974766 0.064062186 -0.07820035 -0.065484256 0.11167877 0.20739384 0.60917807 -0.16004823
0.34467265 0.015822738 -0.05571803 -0.3937584 -0.11523363 0.18446214 -0.32753405 -0.044372424
-0.25772628 -0.21128352 0.04864066 0.053386133 -0.021967702 -0.27651808 0.32681406 -0.5097248
-0.16407786 -0.095299006 0.16632086 0.051483527 0.07733379 0.39101472 0.29761803 0.12230279
0.18987061 -0.68819374 -0.009908137 -0.03554255 -0.45070425 0.043008648 0.15816501 0.19095612
00000000: b7bb cf3c 7bd9 de3d 1948 41bd 549a b8bd
00000010: 9ef5 90bc bf80 f0be ae73 a73d 15fd 82be
00000020: 5f15 b93d c75c 193e a42b 543d 54ed b53e
00000030: bf93 95be ba9d 4fbe f16b a0be 1dda e03c
00000040: 0aff bbbc 8106 123e e3ce a4bd f3a1 28bc
00000050: b9ac f03d 063d 89be 5630 063e 26cf a93d
00000060: 8293 c7be 3112 a43e e121 ae3d 6319 0abe
00000070: babc ba3d 5055 5c3e da82 623e 7dcf c2bd
00000080: 69e4 e5bd 46af b1bd c424 4e3d dbe2 c6be
00000090: 53df 1b3d f0d7 323e 5218 4cbe d82e f0b7
000000a0: 6fa1 5e3e 048b afbe 42af 833e 7627 28be
000000b0: d372 1b3e 6e6f c43d 424d 08be eb8e da3d
000000c0: a41a 71bd 1c3a 85bd f42e 803d bee4 bcbe
000000d0: d826 023e 3cc4 2b3e 64fe 52be e495 6ebd
000000e0: 5f51 883e 981c 91bd 43fe 3abe b63c acbe
000000f0: cba3 7abd 8167 a23e 2883 513e dc28 cdbc
00000100: c5d0 90bd 1963 2abe 5bf9 0d3d d65d 163e
00000110: b42d f0be 583f 63bd cd25 a43e e519 043e
00000120: 49a9 aa3e 538a 733e dcb2 92be e7dc a4be
00000130: 64b4 2f3e 02c7 5fbd 115c 0dbc 9a57 aabe
00000140: 2960 03be 7a3d d7bc e044 a73d c5d2 ecbd
00000150: 41b5 86be f08a 96be f68f 453e a75d a93d
00000160: 40b4 dcbd 6db6 dabd 1fac 5ebe f6ad d53d
00000170: 7aa7 ac3d 8741 25be 9528 9bbe c690 11be
00000180: 260a 3ebe a3fc 033e be7d 423e c602 d4bd
00000190: ed59 153e 5415 303e c52a 053e 0b65 053e
000001a0: f351 413e bfd7 d93c d72f 3cbe fed9 25bd
000001b0: dcbc 53bd 82fa 093f c845 3ebd c7e7 aa3e
000001c0: 5e8b 14be bf02 5a3e 904e 983e c631 2e3e
000001d0: 14c0 533d 5935 62be 5c0e 4b3c df1c a9bd
000001e0: 5f63 1a3f 36a6 1bbd f615 2cbe 9c24 333e
000001f0: 5bd2 64be 0919 403d 9449 b2be b4f1 8cbe
00000200: b931 de3e 86ed 163e 541a 933d 73ff ebbb
00000210: d679 b6be dd2e 173e 864b 313c 40a0 303e
00000220: 55de 21bd 5bba 48be a7bd 5fbd 3cd8 84be
00000230: 8fc3 2fbe 64ec 8ebd 36e9 c1be 9740 dbbd
00000240: 50ff 24be 3f05 a43e 98fb 0f3f 7c2a 36be
00000250: 3c03 29bd 9740 463e 27b2 43be a40f 5e3d
00000260: c6e1 adbe cbd4 a53d 8de1 8a3d 785f 39be
00000270: d19f 13be 0a97 7a3e c849 003e a360 30bd
00000280: 6eef b83d 617c 50bd 763e 393e e771 dcbd
00000290: c7c6 debe c5aa 523e 62d9 4abe b416 1d3d
000002a0: f2d8 50bd b830 75be ed54 eabe 7e6a 103e
000002b0: 7323 b43e 08af 193e 778c 14bf 1a4c 903e
000002c0: d6dd 703e 926c 053e 2018 6fbe f268 91be
000002d0: 7507 87be a4f2 09bf 3f40 11be d24b 7cbe
000002e0: 4a82 88be 106c 27be bf24 383e b5fb 643e
000002f0: 0299 7d3e 8c64 f1bd 2b61 903e 2f77 f4bd
00000300: 41f3 a3bd 6b10 56bd 31bf 103e a33d aa3c
00000310: 0360 ad3e 00d9 6ebe 3595 92be 89a7 ddbd
00000320: e27f b6bd 80db 6e3e d379 2ebf 89f5 003e
00000330: 4a33 943c cd91 f4bd b96d 933d 8fce 833c
00000340: 1fe2 81bc 5a11 01be cfe5 1d3e 3bdf 39be
00000350: 118a b2be 48d6 263e 82b1 09bf def7 c83d
00000360: 562b e53c 0933 833d 8127 a0bd 9c1c 86bd
00000370: d7b7 e43d 0d5f 543e 18f3 1b3f afe3 23be
00000380: ef78 b03e b09e 813c 9738 64bd b39a c9be
00000390: 9cff ebbd a5e3 3c3e 8bb2 a7be dcbf 35bd
000003a0: b3f4 83be b55a 58be 6e3b 473d 6bab 5a3d
000003b0: 9cf5 b3bc c793 8dbe 2c54 a73e 537d 02bf
000003c0: 0704 28be 202c c3bd 0450 2a3e 64e0 523d
000003d0: 2e61 9e3d 1533 c83e 6461 983e e379 fa3d
000003e0: 716d 423e 772d 30bf bd55 22bc 1195 11bd
000003f0: b5c2 e6be d629 303d 02f6 213e 008a 433e

beat_encoder/conv2d_1/Conv2D f4 [32, 3, 3, 1]
-0.2052195 -0.06074138 0.0045677694 0.12012667 0.38655785 0.32243875 -0.13337535 0.15172915
-0.061041564 0.2509537 0.14400114 0.047050014 0.081954695 0.035016835 0.09319005 0.2828159
0.3669111 0.21935731 0.057201393 0.02756036 -0.14637898 -0.09776319 0.07290908 -0.107399955
-0.076885976 -0.14212207 0.12903687 -0.06811706 -0.0066962447 -0.07195855 -0.01570377 0.23262525
-0.051172968 0.1495081 0.13820934 -0.3578242 -0.054435533 -0.02437849 0.2029967 -0.111932665
-0.09562182 0.057677258 -0.34131092 -0.28257945 0.081750795 0.016846733 0.041831266 -0.08684853
-0.06735672 -0.07558123 0.09810127 -0.02343342 -0.044687044 -0.035564095 0.16592102 0.18752393
-0.2150134 0.10863609 0.17509173 -0.018893408 -0.073747225 0.088864185 -0.2769816 -0.028468054
-0.00063852326 0.011289893 0.26061743 -0.12727442 -0.12103727 -0.050716184 -0.0043221503 0.05532402
0.098246485 -0.094710104 0.104318514 -0.29825738 -0.2674528 -0.19535775 0.25578612 0.050500996
0.036879115 -0.03575916 -0.18127505 0.07110978 -0.4165735 -0.26589468 -0.2483894 0.22008009
0.20745803 0.040044732 0.13610145 0.10159441 0.24358846 -0.15817927 -0.07374616 0.24599972
-0.43593407 -0.40686893 -0.123997316 -0.32491598 -0.53899986 -0.10819417 -0.33115816 -0.18416162
-0.019481981 0.19821544 0.33368933 0.17571943 0.06318061 -0.14879304 -0.24566096 -0.10615719
0.09267517 0.073333934 -0.07575055 0.12038907 0.2809953 0.00030372693 -0.0913768 0.03374612
-0.0370018 -0.1548712 0.098183244 -0.10274732 -0.08282295 -0.04435937 -0.092160456 0.08419828
0.20215112 -0.17959227 0.07438812 0.3088576 -0.1662573 0.010836875 0.2130831 -0.13474905
0.0062246025 -0.059053503 -0.009937674 -0.1296724 -0.087564245 -0.085450456 -0.106512085 -0.031605743
0.03730786 0.1290721 -0.43907255 0.15205064 0.21505673 -0.3747782 0.0585431 0.048346262
-0.31253612 -0.029110907 0.13804148 0.24091421 -0.15228786 -0.23312086 -0.03294881 -0.39708093
-0.19996189 -0.24956512 0.3120298 0.07315687 -0.12756786 -0.11061227 -0.2384269 -0.26384196
-0.10097037 0.11095908 0.22638997 0.0011641656 -0.18092498 0.0666557 0.21715666 0.27083063
0.19324158 -0.09167838 -0.21754712 -0.1850858 0.29892766 0.25737122 0.11167417 -0.03250562
0.101918444 -0.132243 -0.1801794 0.0070878956 -0.23525734 -0.12516105 -0.053829692 -0.08375731
-0.079301246 -0.046540763 0.020155238 0.055323213 -0.13694891 -0.12705821 -0.2266717 -0.09924053
0.07720159 -0.15593113 0.07441977 0.109980755 -0.06071158 0.005557447 0.10712809 -0.024357805
0.073867165 0.3186959 -0.32047108 -0.44060126 -0.14762509 -0.055815678 -0.0068959394 0.12980862
-0.21704407 -0.38430253 -0.04824456 -0.31740025 -0.5874215 -0.19006473 -0.34401202 -0.5571274
-0.32216233 0.007067105 0.08234703 -0.061613884 -0.07995577 0.0930616 -0.034249473 -0.034109987
0.08872994 -0.05359819 -0.008107409 -0.046631187 -0.062687926 -0.08554125 -0.0011033714 -0.13362959
-0.022168592 -0.106417574 -0.12172225 -0.11124933 0.096460156 -0.24059811 -0.028110279 0.16356273
-0.2288074 0.21062987 0.2641381 -0.020871164 0.13106784 0.052890576 -0.28263167 0.027089968
00000000: 1025 52be f4cb 78bd 3aad 953b f904 f63d
00000010: e9ea c53e b116 a53e 8c93 08be e35e 1b3e
00000020: b806 7abd 017d 803e 0975 133e 84b7 403d
00000030: ddd7 a73d d06d 0f3d 6dda be3d 3fcd 903e
00000040: c6db bb3e 349f 603e 024c 6a3d 44c6 e13c
00000050: 5fe4 15be 1138 c8bd 5b51 953d 82f4 dbbd
00000060: 6576 9dbd 7388 11be 3e22 043e f580 8bbd
00000070: 2c6c dbbb 015f 93bd 31a5 80bc 5035 6e3e
00000080: bf9a 51bd a718 193e c086 0d3e bc34 b7be
00000090: cbf7 5ebd 66b5 c7bc 5ede 4f3e f43c e5bd
000000a0: 5fd5 c3bd fd3e 6c3d 4ec0 aebe 41ae 90be
000000b0: f66c a73d 2902 8a3c 4357 2b3d a4dd b1bd
000000c0: 52f2 89bd 55ca 9abd 52e9 c83d 72f7 bfbc
000000d0: c309 37bd a8ab 11bd 33e7 293e 4606 403e
000000e0: 792c 5cbe 997c de3d 3f4b 333e 59c6 9abc
000000f0: c908 97bd 6dfe b53d 88d0 8dbe d635 e9bc
00000100: 9262 27ba 3ef9 383c a66f 853e 3a54 02be
00000110: 63e2 f7bd c6bb 4fbd d3a0 8dbb 719b 623d
00000120: 7435 c93d 5ff7 c1bd f2a4 d53d 31b5 98be
00000130: 93ef 88be dd0b 48be 66f6 823e 22da 4e3d
00000140: 8e0e 173d 3278 12bd 2ba0 39be 01a2 913d
00000150: 1f49 d5be 5923 88be ca59 7ebe ad5c 613e
00000160: e16f 543e f205 243d 2e5e 0b3e bb10 d03d
00000170: 416f 793e bff9 21be 3a08 97bd 5ae7 7b3e
00000180: c032 dfbe 2051 d0be 4ef2 fdbd 635b a6be
00000190: e5fb 09bf e894 ddbd 908d a9be dd94 3cbe
000001a0: ad98 9fbc fdf8 4a3e 54d9 aa3e cbef 333e
000001b0: d664 813d 345d 18be 8c8e 7bbe f168 d9bd
000001c0: 7bcc bd3d 1a30 963d 1b23 9bbd 8b8e f63d
000001d0: 9ede 8f3e 8a3d 9f39 c223 bbbd 5f39 0a3d
000001e0: 338f 17bd 8e96 1ebe 4c14 c93d 306d d2bd
000001f0: 149f a9bd 2cb2 35bd 9fbe bcbd 2670 ac3d
00000200: b400 4f3e 09e7 37be cc58 983d 9522 9e3e
00000210: 5b3f 2abe 268d 313c 7532 5a3e a8fb 09be
00000220: c0f7 cb3b 16e2 71bd a0d1 22bc d7c8 04be
00000230: e254 b3bd a600 afbd 0223 dabd 0675 01bd
00000240: 20d0 183d 7a2b 043e 1ece e0be 2ab3 1b3e
00000250: d537 5c3e eee2 bfbe e4ca 6f3d bb06 463d
00000260: bc04 a0be ff79 eebc bf5a 0d3e 37b2 763e
00000270: 59f1 1bbe 3cb7 6ebe 55f5 06bd 314e cbbe
00000280: cfc2 4cbe 008e 7fbe 5fc2 9f3e 45d3 953d
00000290: 26a1 02be b088 e2bd 2e26 74be 4b16 87be
000002a0: 8ec9 cebd 843e e33d c6d2 673e ea96 983a
000002b0: 6644 39be c982 883d 515e 5e3e 50aa 8a3e
000002c0: 1fe1 453e e0c1 bbbd acc4 5ebe 2287 3dbe
000002d0: 0c0d 993e 29c6 833e 6db5 e43d 9d24 05bd
000002e0: 9eba d03d b66a 07be f380 38be 9441 e83b
000002f0: 4de7 70be 382a 00be 867c 5cbd f488 abbd
00000300: b168 a2bd 87a1 3ebd 991c a53c 989a 623d
00000310: 563c 0cbe 8c1b 02be a01c 68be 9e3e cbbd
00000320: de1b 9e3d 69ac 1fbe 6469 983d 973d e13d
00000330: b5ac 78bd 3f1b b63b f965 db3d 058a c7bc
00000340: ab47 973d 1c2c a33e c914 a4be 7d96 e1be
00000350: 082b 17be fb9e 64bd 55f7 e1bb 8dec 043e
00000360: cd40 5ebe 4dc3 c4be 169c 45bd 4982 a2be
00000370: 4161 16bf 54a0 42be 5822 b0be e79f 0ebf
00000380: 76f2 a4be 2c93 e73b 8fa5 a83d d75e 7cbd
00000390: dabf a3bd 1597 be3d 2d49 0cbd eab6 0bbd
000003a0: 0bb8 b53d c789 5bbd f0d4 04bc 5800 3fbd
000003b0: 8762 80bd 4030 afbd 009f 90ba 32d6 08be
000003c0: e89a b5bc 75f1 d9bd 8449 f9bd b0d6 e3bd
000003d0: e78c c53d 5a5f 76be 8747 e6bc fd7c 273e
000003e0: 7d4c 6abe 5baf 573e 1c3d 873e 01fa aabc
000003f0: a636 063e caa3 583d 19b5 90be c8eb dd3c

beat_encoder/conv2d_2/Conv2D f4 [64, 3, 3, 32]
-0.057449907 -0.0844517 -0.14684623 -0.046833627 0.022574047 0.0287552 -0.29368284 -0.045395084
-0.20711055 -0.100813046 -0.066640325 -2.3696237e-05 0.11439259 0.0362463 0.023971993 -0.005887128
-0.1152163 0.08217605 0.068333715 -0.31790254 -0.18059997 0.028466089 0.15587376 0.043936055
-0.02063379 0.054228347 0.0039621335 -0.14295305 0.0022370084 0.17517857 0.14021584 -0.06251945
-0.0100693675 -0.026503231 0.008928031 0.012045294 -0.11963794 0.0159911 -0.07829151 -0.17972343
-0.22405665 -0.09308098 -0.23765723 0.01716241 0.15034625 -0.084366836 0.023968516 -0.04193786
-0.16893871 0.04704859 -0.14391053 -0.3748717 -0.28685057 0.015118138 0.10052917 -0.10130777
0.07191113 0.0055282325 -0.08682714 0.07574099 0.042848535 -0.048847526 -0.1634706 -0.09122228
-0.024688868 -0.07279901 -0.0044323746 0.08558849 -0.05607973 0.080574274 -0.12988414 0.02510539
-0.25789228 -0.20499948 -0.29070142 0.05228532 0.0126391165 0.01715174 -0.071232855 -0.0146064265
0.20852354 -0.014578536 -0.39396644 -0.2535724 -0.16291425 -0.1050095 0.12465766 -0.25373128
0.037395626 -0.0358797 -0.10524101 0.024567733 -0.042722225 -0.12398013 -0.33215767 0.01551074
0.37576836 0.0935703 0.04701299 -0.001181487 0.04715396 0.018870898 -0.118375905 -0.11120113
0.09827176 0.212811 0.00048221112 0.0392437 0.06361643 -0.07100084 0.27613878 -0.1023674
0.032666985 -0.043604877 0.19846639 0.24401274 0.024136998 0.01203735 0.26139048 0.11458027
0.044328786 0.0931262 -0.029321386 -0.15866505 -0.07018037 0.21014369 0.012799828 -0.027012376
0.2716078 0.09409906 0.15358399 0.1511691 -0.3829725 0.08729922 0.17599055 0.18518393
0.12325027 0.07537635 -0.21657692 -0.10636996 -0.076850295 -0.055002704 -0.0074703046 -0.00580519
0.06067588 0.0010239625 0.018369848 0.09142564 -0.04538295 -0.06436727 0.008921589 -0.28959355
0.11636223 0.028430484 -0.12528458 0.027868124 0.078265496 -0.060596142 -0.0023074378 0.04122845
-0.11697505 -0.050048437 -0.07784743 0.09953735 -0.034737837 0.029021101 0.017763412 0.1278741
0.055490173 0.054782864 -0.015009897 -0.2534588 -0.1981409 0.023151096 -0.17527767 -0.12647162
-0.0637414 -0.3907851 -0.19020957 -0.14268367 -0.17311528 0.01737125 -0.24292916 -0.092812836
0.06490368 -0.049086314 -0.00243627 -0.127445 -0.08149595 -0.12417509 -0.04727562 0.0060474705
-0.1495561 -0.054474965 -0.027852619 -0.22221191 -0.062673435 0.10720027 -0.19209285 -0.0905751
-0.18889192 -0.19616474 0.0949779 -0.44141424 -0.3365898 -0.018531919 0.16790155 -0.11348524
-0.089504845 0.056205627 -0.2576445 -0.13112484 -0.023484042 0.014079897 -0.022794453 -0.030571902
-0.15955694 -0.009945024 -0.06398569 -0.19558613 -0.28177327 -0.026951523 -0.36474764 0.071635365
-0.22743808 0.087908715 -0.08919043 -0.33112323 -0.35175642 0.08885611 0.05978459 -0.021030461
-0.20109805 -0.18242563 -0.1824544 -0.3848678 -0.08855883 0.11128049 0.01016316 -0.04257121
0.14379 0.024172224 -0.0972216 -0.2048975 0.09819702 -0.07997491 -0.28848776 -0.28927755
-0.066170596 0.14817691 -0.042925745 -0.17996109 0.19203417 -0.01349854 -0.2914767 0.022588374
00000000: 9850 6bbd 03f5 acbd dc5e 16be 9ed4 3fbd
00000010: 35ed b83c 0690 eb3c 995d 96be 32f0 39bd
00000020: ca14 54be 1277 cebd b97a 88bd 48c7 c6b7
00000030: aa46 ea3d 0077 143d ea60 c43c cfe8 c0bb
00000040: 86f6 ebbd eb4b a83d 8cf2 8b3d 1fc4 a2be
00000050: 33ef 38be b731 e93c 5f9d 1f3e 4bf6 333d
00000060: 3208 a9bc 8b1e 5e3d c9d4 813b 4962 12be
00000070: c69a 123b 0362 333e be94 0f3e 330a 80bd
00000080: fdf9 24bc 4e1d d9bc e046 123c a059 453c
00000090: bc04 f5bd c4ff 823c 4d57 a0bd 6b09 38be
000000a0: 1b6f 65be 3ea1 bebd 6b5c 73be 2f98 8c3c
000000b0: 5ef4 193e 85c8 acbd 9f59 c43c 09c7 2bbd
000000c0: 45fe 2cbe 06b6 403d 485d 13be 2fef bfbe
000000d0: 14de 92be 11b2 773c 3de2 cd3d 737a cfbd
000000e0: 2446 933d 2d26 b53b 6dd2 b1bd 181e 9b3d
000000f0: f281 2f3d 5814 48bd d664 27be bfd2 babd
00000100: 4f40 cabc a617 95bd 743d 91bb 0549 af3d
00000110: dcb3 65bd 2004 a53d 5900 05be d2a9 cd3c
00000120: 750a 84be 62eb 51be d1d6 94be 2229 563d
00000130: 4c14 4f3c ce81 8c3c 88e2 91bd cb4f 6fbc
00000140: 3287 553e d0da 6ebc f8b5 c9be 3ed4 81be
00000150: fed2 26be 390f d7bd 844c ff3d 11e9 81be
00000160: 282c 193d 98f6 12bd 9988 d7bd 4542 c93c
00000170: 80fd 2ebd 4be9 fdbd 9210 aabe c220 7e3c
00000180: b664 c03e c9a1 bf3d b190 403d 20dc 9aba
00000190: 8324 413d 2497 9a3c 116f f2bd 6bbd e3bd
000001a0: b442 c93d 20eb 593e 48d1 fc39 01be 203d
000001b0: 5549 823d e368 91bd 1062 8d3e 00a6 d1bd
000001c0: d1cd 053d 079b 32bd c63a 4b3e 7ade 793e
000001d0: f4ba c53c 4e38 453c f9d4 853e 10a9 ea3d
000001e0: 1a92 353d f3b8 be3d 6733 f0bc 1779 22be
000001f0: baba 8fbd e82f 573e 5fb6 513c 0f49 ddbc
00000200: 2d10 8b3e 02b7 c03d 1f45 1d3e 13cc 1a3e
00000210: f914 c4be efc9 b23d de36 343e dba0 3d3e
00000220: a36a fc3d ea5e 9a3d 57c6 5dbe 7ed8 d9bd
00000230: b063 9dbd 844a 61bd 75c9 f4bb 7739 bebb
00000240: 4687 783d 7b36 863a 5d7c 963c 5e3d bb3d
00000250: 79e3 39bd fdd2 83bd db2b 123c 9b45 94be
00000260: 524f ee3d 0ce7 e83c 9a4a 00be b14b e43c
00000270: a949 a03d a933 78bd 6238 17bb 2adf 283d
00000280: 9d90 efbd 97ff 4cbd 796e 9fbd 3dda cb3d
00000290: 4349 0ebd a9bd ed3c 9384 913c 6ef1 023e
000002a0: aa49 633d ff63 603d 12ec 75bc 5ac5 81be
000002b0: 73e5 4abe 5ea7 bd3c fd7b 33be c781 01be
000002c0: da8a 82bd fc14 c8be 4cc6 42be ab1b 12be
000002d0: 2245 31be 274e 8e3c 6cc2 78be a814 bebd
000002e0: 38ec 843d bb0e 49bd d4a9 1fbb f180 02be
000002f0: 59e7 a6bd 824f febd 15a4 41bd dc29 c63b
00000300: 3c25 19be 2421 5fbd 2d2b e4bc 858b 63be
00000310: ee5a 80bd d18b db3d fdb3 44be 707f b9bd
00000320: e26c 41be 69df 48be c683 c23d 0c01 e2be
00000330: 8055 acbe 40d0 97bc 62ee 2b3e f36a e8bd
00000340: 514e b7bd df37 663d fbe9 83be 9745 06be
00000350: 9b61 c0bc 5eaf 663c 6fbb babc ed71 fabc
00000360: e562 23be 74f0 22bc ee0a 83bd bb47 48be
00000370: 9644 90be 71c9 dcbc 34c0 babe 90b5 923d
00000380: 87e5 68be 7c09 b43d 79a9 b6bd fc88 a9be
00000390: 6b19 b4be 31fa b53d b0e0 743d 1348 acbc
000003a0: a6ec 4dbe c9cd 3abe 54d5 3abe 640d c5be
000003b0: 555e b5bd 07e7 e33d 6283 263c 265f 2ebd
000003c0: b03d 133e d404 c63c 1e1c c7bd a6d0 51be
000003d0: 851b c93d e3c9 a3bd abb4 93be 301c 94be
000003e0: 7384 87bd b0bb 173e e8d2 2fbd b847 38be
000003f0: 9ba4 443e fb28 5dbc 6f3c 95be 410b b93c
