android/src/main/python/converted_model.tflite (tflite, 839196 bytes, 23 tensors)

unknown_0 f4 [32]
000000 ac b4 e5 3b 69 d4 63 3c 04 62 33 3c 8c f8 38 3c
       0.007010063 0.013905623 0.010948662 0.011289727
000010 05 03 a6 3b 46 f7 a0 bc 11 15 39 3c 73 3c 5e 3b
       0.005066278 -0.01964916 0.0112965265 0.0033910542
000020 d7 19 b0 3b 58 7c 5a 3b 6f 57 11 3c 10 c9 80 3b
       0.005374174 0.0033338275 0.008870943 0.0039302185
000030 9b 93 f4 3b f5 e8 3b 3c 54 5a 76 3c 00 00 00 00
       0.007463885 0.0114691155 0.015036184 0.0
000040 58 30 21 3c 75 99 a6 bb 0a 8c 0a 3c 00 2d 29 3c
       0.009838186 -0.0050842115 0.0084562395 0.01032567
000050 a0 20 73 3b 19 46 20 3c 25 38 22 3c 68 79 c6 3b
       0.0037098303 0.009782338 0.009901081 0.006056953
000060 09 ad 91 bb 40 ce 46 3d 00 00 00 00 19 f1 16 3c
       -0.004445676 0.04853654 0.0 0.009212756
000070 63 f1 eb bc 18 d6 27 3c f9 69 4d 3b d6 3f f4 3b
       -0.028801626 0.010243915 0.0031343682 0.007453899

unknown_12 f4 [128]
000000 8d dd b8 bb 23 f4 41 3c f6 75 7a 3c 55 f2 92 b9
       -0.0056416453 0.011837992 0.015286913 -0.00028027841
000010 0d db 65 bd 19 cd 34 bc f4 ac d0 3c 37 c0 32 3c
       -0.056117106 -0.011035227 0.025473095 0.010910085
000020 8d bf 91 3b 9c fa e6 bc ab 51 e4 bc ab 43 8c bd
       0.0044478835 -0.028195672 -0.027870974 -0.06848844
000030 38 a7 c3 bb ca 3d 2a 3d 69 06 eb bb 43 8d 63 bd
       -0.0059708618 0.041562833 -0.007172395 -0.05555464
000040 b9 b1 cf bd c9 cb a7 bd 1a 87 0c bd 8a 43 26 3d
       -0.1014132 -0.08193166 -0.03430853 0.040591754
000050 fa 3e fa bc 37 92 64 bc 24 33 4a bd b9 c2 86 bd
       -0.030547608 -0.013950876 -0.049365178 -0.06580109
000060 6d ca 80 bc 3e 91 28 3d 1b ef 50 bd fa 2c 1c 3d
       -0.015721524 0.04115414 -0.05100928 0.03812883
000070 50 68 e3 3c c7 8e 15 bd 5e aa 9d bd 03 f1 b6 bb
       0.027759701 -0.036513116 -0.076985106 -0.00558293
000080 d9 29 09 bc 65 6a 78 bd 3e 4c c4 bc c8 e1 b1 bd
       -0.008371794 -0.06064834 -0.023962136 -0.086856425
000090 48 f0 f7 bb 6a fa 2b bd 19 84 50 3d 53 63 1f bd
       -0.0075664856 -0.04198686 0.05090723 -0.038913082
0000a0 6a b2 59 bb 72 01 eb 3b be 74 b3 bc 5b e2 44 3d
       -0.0033217915 0.007171803 -0.021906253 0.048067432
0000b0 0f ee 44 bc 0a d2 4e bd 6e 1f 30 bd cc 63 a3 bc
       -0.012019648 -0.050493278 -0.042998724 -0.019945048
0000c0 5d c7 a8 bd 4d e7 a8 bd 14 64 19 bd 1f 0a 16 bd
       -0.082411505 -0.08247242 -0.037448958 -0.036630746
0000d0 86 7f 4b 3c e5 97 b1 bc 2b bd fc 3c fb 05 9f bc
       0.012420541 -0.021678874 0.030851921 -0.019412031
0000e0 18 b3 01 3c 60 1b 27 bc 9d fa ae bd db 42 cc bc
       0.007916234 -0.010199398 -0.085438944 -0.024934223
0000f0 01 6a 2c bd 0a 2e 37 bc b3 47 99 bb 53 22 72 3c
       -0.04209328 -0.01118041 -0.0046777367 0.014778691
000100 8c a9 1f bc 26 6b 95 bc ef fc 6b bc ac c1 63 bd
       -0.009745013 -0.018239569 -0.014403566 -0.05560462
000110 0b f3 df bc cd c2 38 3d fc 3f 27 3d 13 5d 35 bd
       -0.027337572 0.04510765 0.040832505 -0.044278216
000120 9c b4 98 bd 0d 92 03 3d 43 24 46 3d db e3 a1 bd
       -0.074563235 0.032121707 0.048374426 -0.07904788
000130 1b f5 16 3c c7 e2 3b bc 50 d2 32 3d e5 b3 10 bd
       0.009213711 -0.011467642 0.0436576 -0.03532781
000140 30 1f 56 bd 5f 28 32 bc 3c fb 49 bd 2e a2 33 bd
       -0.052275836 -0.010873883 -0.04931186 -0.04385584
000150 d2 76 8d bd 46 d1 5f bc 1a 1d a8 bd 8f ae fb 3b
       -0.06907429 -0.0136607345 -0.08208676 0.007680721
000160 df 8c c5 3c e4 de 94 3c 28 b5 99 bc 1c 0d 24 bd
       0.024115024 0.018172689 -0.01876314 -0.040051565
000170 58 79 6b 3d c6 af 18 3d 15 1b 4b bc 41 aa 29 bd
       0.05748877 0.037277006 -0.012396594 -0.041422132
000180 76 7d d7 bc 8e fd cc 3c 24 31 cf 3c a5 11 d0 bc
       -0.026304942 0.025023248 0.025291987 -0.025399039
000190 6f 8e 11 3c 01 db 74 bc 53 9e 2e 3d 58 db 80 3c
       0.0088840565 -0.014944793 0.04263146 0.015729591
0001a0 d3 01 de bc 6d b5 e2 b9 b3 fe a2 3c e9 ea a4 3c
       -0.02710048 -0.00043241252 0.01989684 0.020131545
0001b0 73 16 7b 3d 16 f4 89 bc 3b 16 c3 bc 19 7c b2 bb
       0.061300706 -0.016840022 -0.023814311 -0.0054469225
0001c0 cc 8f 81 bd 70 3f 3a 3c 2a 75 0f bc 40 a9 a2 bc
       -0.06326255 0.011367664 -0.008755961 -0.019856095
0001d0 27 34 df bc 4e ad 48 3c 4c 13 ff bc 18 e5 ea bc
       -0.027246548 0.01224835 -0.031137131 -0.028673694
0001e0 62 44 85 b9 b8 fb 10 bc f0 93 99 bc 7b 6d 3d bd
       -0.00025418686 -0.008849077 -0.0187473 -0.046246987
0001f0 04 d1 ef 3c a4 97 69 3c c9 a4 d1 3c f9 29 35 3c
       0.029274471 0.014257345 0.025591271 0.01105737

unknown_21 f4 [50]
000000 fb 1e 32 3d 0e 7b ea 3b a5 94 1a bd 94 21 a9 3d
       0.043486577 0.0071557825 -0.037739415 0.08258358
000010 cc 0b ed ba b4 3d e5 3d b4 ab d4 3c 5b 9b 0a 3e
       -0.0018085181 0.111934096 0.02596078 0.13535826
000020 db 1a 47 3d 44 57 6d 3d 32 e3 54 bc 17 99 6c 3d
       0.048609596 0.05794455 -0.012993621 0.057763185
000030 65 a0 03 3e 66 3b 7e 3d c6 34 42 bd cb 10 bd 3d
       0.12854154 0.062068366 -0.04741361 0.09231719
000040 9b 03 e4 3b b1 e7 fa 3d 04 82 cb 3c 65 14 bb 39
       0.0069584376 0.12251223 0.02484227 0.00035682615
000050 63 0a 9c bb eb 68 a1 3d e7 dd 68 3c d4 c0 f0 3c
       -0.0047619804 0.0788134 0.014213062 0.029388823
000060 91 72 84 3d 5d ac 0c bd 7b 1c 80 3d 22 52 c6 bc
       0.06467164 -0.034344066 0.06255432 -0.024209086
000070 3b b4 ac 3d a4 dd 47 3a dd be 34 3d b0 f2 12 3d
       0.08432814 0.00076242746 0.044127334 0.035875976
000080 1e 6c f1 bc 15 03 07 3d aa ad c3 3c e8 58 ea 3d
       -0.0294705 0.032961924 0.02388652 0.11442739
000090 9f e3 a6 3d 14 89 06 3d 2f b3 55 3d 82 3b b4 3d
       0.08148884 0.03284557 0.052172836 0.08800413
0000a0 97 d8 ea 3c 32 34 08 bd 62 f1 8a 3d 98 e2 29 3d
       0.028667731 -0.033252902 0.06784321 0.041475862
0000b0 95 73 80 3d 88 ad ba bc 1c 12 19 3e 63 4e 20 3c
       0.062720455 -0.022787824 0.14948314 0.009784314
0000c0 09 33 6f bc 6b 58 bc 3c
       -0.01459957 0.02299138

unknown_23 f4 [50]
000000 77 1f 53 be 3e d3 82 bd ba e4 eb bd f1 14 28 be
       -0.20617472 -0.063879475 -0.115182355 -0.16414239
000010 c7 09 05 be cf 4f 44 3d be 0f 89 3e 3f ff 4b 3e
       -0.12992011 0.047927674 0.26769823 0.19921587
000020 8d 3a 91 3e 5f d6 9b bd 3c ef 54 be fa 99 17 be
       0.28364983 -0.076092474 -0.20794386 -0.14804831
000030 9f 67 26 be 84 4f 7b be 91 ce 2c 3e 30 e4 a6 3e
       -0.16250466 -0.24542052 0.16875674 0.32595968
000040 a4 32 68 3e 65 31 5e 3e 41 24 5c 3d c6 26 85 3e
       0.22675568 0.2169853 0.053745512 0.26006144
000050 db 4b 99 be 2d 65 60 be e3 18 48 bd 82 c2 1b 3e
       -0.29940686 -0.21913595 -0.04885186 0.15210918
000060 01 6d 0f 3e cc 63 b4 be 97 ed 4c 3e 29 08 7e 3e
       0.14006425 -0.3523239 0.20012508 0.248078
000070 d5 0d 2c 3e f4 3d 78 be 5e ba a4 3e 00 e3 99 be
       0.16802152 -0.24242383 0.32173437 -0.30056
000080 ef 25 7d be 01 d6 86 be 22 9b 5d 3e 18 9b 7e be
       -0.24721502 -0.26335147 0.2164121 -0.24863851
000090 b6 26 06 be 0e f7 6a bd f5 78 1c be 1c 70 93 be
       -0.13100705 -0.057364516 -0.15280516 -0.2879647
0000a0 0e d5 2d be ec 5f 30 3e fb 5f c0 3d 49 4d 2f 3e
       -0.16975805 0.17224091 0.09393307 0.17119326
0000b0 67 f1 2c be fd 5c 81 3e 81 7d fe 3d 46 7b 22 3e
       -0.16888963 0.25266257 0.12426282 0.15867338
0000c0 b4 aa 29 3e 05 1d 2b be
       0.16569024 -0.16710289

unknown_26 f4 [5]
000000 81 b9 04 bc 39 60 52 3d b6 a8 0a bc 15 c2 df bc
       -0.008100868 0.051361296 -0.008463075 -0.027314225
000010 77 aa 87 bd
       -0.066243105

unknown_6 f4 [64]
000000 bb c3 32 bc b3 20 69 3d b3 51 22 3d b1 d5 d8 3c
       -0.010910924 0.05691595 0.039628696 0.026469084
000010 3e 34 81 3c 78 e0 86 3c 84 26 5f bd fe 05 45 3c
       0.015771981 0.016464457 -0.05448009 0.012025354
000020 cf 01 e4 bb b4 94 87 3b b3 a1 b8 39 05 91 0a bd
       -0.0069582234 0.0041376 0.0003521569 -0.033829708
000030 59 87 f1 bb 5a de 5e 3d c1 b9 12 bd b1 2d 76 bc
       -0.007370871 0.05441127 -0.03582168 -0.015025542
000040 8c de 27 3d b6 99 2f bd a4 da a5 3c 49 56 29 bd
       0.04098372 -0.0428712 0.020245858 -0.041342054
000050 0e 1f 13 3d c1 36 38 bb 07 5e a9 bb c0 3b 01 bb
       0.035918288 -0.0028108808 -0.0051686796 -0.0019719452
000060 4f 08 15 3c 48 75 a5 3a 04 4f d6 3c e3 c2 4c 3c
       0.009096219 0.0012623454 0.026160724 0.0124976365
000070 3c 54 eb 3b 4b 47 20 3c 30 78 42 bc da a6 be bc
       0.0071816724 0.009782623 -0.011869475 -0.02327292
000080 60 eb 74 3c d9 eb 0d 3c 17 a5 b0 3b 99 32 c2 3b
       0.014948696 0.0086621875 0.005390774 0.005926442
000090 3e 62 be 3c 11 5f 9d 3d 38 89 9b 3c b7 e7 57 bd
       0.023240205 0.07684148 0.01898633 -0.052711215
0000a0 77 38 0b 3c e5 62 0f bc 3d 4a 10 3d 57 17 37 bb
       0.008497349 -0.008751606 0.03522705 -0.0027937496
0000b0 54 70 02 3d e3 37 7f bc 8c ad 85 3c 4c ad 92 3c
       0.031845406 -0.015577289 0.016318105 0.0179049
0000c0 1a 19 94 bd 0e 64 56 3c de 96 89 3d cf 46 2f bd
       -0.0723135 0.013085378 0.06718229 -0.042792138
0000d0 a1 2a bd bc bf de 8a bc e6 ee ff 3c a3 ac 60 bd
       -0.023091616 -0.016951917 0.031241845 -0.05485214
0000e0 93 cc de 36 aa 5e 37 3d f6 25 0a 3d d1 35 91 3c
       6.639931e-06 0.044768013 0.03372761 0.017725857
0000f0 af b9 5c 3c df c2 96 3d ea ee 8e 3d d9 f8 aa 3d
       0.013472005 0.073613875 0.06979163 0.08348245

functional_7/batch_normalization_9/FusedBatchNormV3;StatefulPartitionedCall/functional_7/batch_normalization_9/FusedBatchNormV3 f4 [32]
000000 1d 9c e9 41 b2 8b d7 41 18 44 01 42 eb 3a 08 42
       29.201227 26.94321 32.316498 34.057537
000010 8d f4 02 42 d5 1a 00 42 07 34 ec 41 de aa ed 41
       32.73882 32.026203 29.525404 29.708431
000020 a0 52 f9 41 e5 4b fc 41 aa 70 00 42 8e 4b 02 42
       31.165344 31.537058 32.110023 32.573784
000030 4d 84 e1 41 91 60 01 42 15 da e0 41 72 fb fc 41
       28.1896 32.344303 28.106485 31.622776
000040 ab 09 01 42 43 11 fd 41 7d e2 fc 41 5f eb f0 41
       32.25944 31.633429 31.61059 30.114927
000050 11 88 f6 41 d8 ad 07 42 f0 a4 f2 41 3a c0 f5 41
       30.816439 33.91977 30.330536 30.71886
000060 fc c1 fd 41 2a 25 df 41 72 fb fc 41 34 f9 e1 41
       31.719719 27.893147 31.622776 28.246681
000070 69 e5 fe 41 3f db f3 41 ca ed fc 41 e1 c7 ec 41
       31.862017 30.482054 31.616108 29.597597

functional_7/batch_normalization_9/FusedBatchNormV3;StatefulPartitionedCall/functional_7/batch_normalization_9/FusedBatchNormV31 f4 [32]
000000 1d 1d 8c be 11 04 0d bf 22 96 d1 bd 90 48 cb be
       -0.27365962 -0.5508433 -0.10233714 -0.39703798
000010 e4 b7 31 bd ec 79 6f 3c 88 d0 b2 be e2 ca 06 be
       -0.043388262 0.014616471 -0.34924722 -0.13163331
000020 c3 f6 54 be 54 d2 2b bd 18 5d 79 be 92 58 8c bd
       -0.20797257 -0.04194863 -0.24351919 -0.06852831
000030 22 b5 7c be 4a 9c c4 be d8 7a 06 bf 9e be 9a bc
       -0.24678472 -0.3840049 -0.52531195 -0.018889721
000040 34 55 94 be 39 d1 e6 bb a6 aa 85 be 91 23 a2 be
       -0.28971255 -0.0070439843 -0.26106757 -0.3166776
000050 54 f2 cf bd b2 90 f2 bc 2b f2 a2 be dd 58 a3 bd
       -0.10153642 -0.029610012 -0.31825384 -0.07975934
000060 1c 5b fa bc 02 0f b3 bf f7 e8 49 bc 9e e2 93 be
       -0.030561022 -1.3988955 -0.01232361 -0.28883833
000070 8a b6 13 bb 4c be a3 be d7 d7 4a bd 1c 75 0b be
       -0.0022539222 -0.31981122 -0.049522247 -0.13618892

functional_7/batch_normalization_10/FusedBatchNormV3;StatefulPartitionedCall/functional_7/batch_normalization_10/FusedBatchNormV3 f4 [64]
000000 24 ab 48 41 2d 58 55 40 89 a1 d1 40 f8 92 00 41
       12.541782 3.3335068 6.5509686 8.035881
000010 6a df 30 40 56 c8 86 40 26 16 da 40 0e a6 31 40
       2.763636 4.211955 6.8152037 2.7757602
000020 99 79 04 41 3f 35 53 40 cd fd 4b 40 2c e7 60 40
       8.279687 3.300125 3.1873658 3.5141096
000030 3e 59 84 40 07 20 71 40 07 d9 a2 40 14 a4 3e 40
       4.135894 3.7675798 5.0889926 2.9787645
000040 51 dc 6d 40 06 07 e2 40 73 a0 33 40 bd f5 1e 40
       3.716572 7.0633574 2.806668 2.4837487
000050 9f c6 b0 40 bc c2 3e 41 81 00 ca 40 bd 09 08 41
       5.5242457 11.922543 6.3125615 8.5023775
000060 21 ee 74 40 9f 42 71 40 9e 7b 25 40 93 9c 98 40
       3.8270342 3.7696912 2.58567 4.769113
000070 6b 8f 8b 40 d7 9b 9f 40 9c 7d b4 40 22 b7 af 41
       4.361257 4.9877734 5.640333 21.96442
000080 c6 61 8d 40 ac 59 ab 40 05 08 4f 41 65 fe 84 40
       4.418185 5.3546963 12.939458 4.156054
000090 df d9 09 41 76 f8 9c 40 38 47 cd 40 a3 4f 9c 41
       8.615691 4.9053297 6.4149437 19.538885
0000a0 14 18 44 40 e5 36 f8 40 3a 0d 5a 40 87 b2 1a 41
       3.0639696 7.756701 3.4070573 9.668586
0000b0 6f 98 42 40 5b e3 b0 40 65 c8 03 41 b2 80 ed 40
       3.0405538 5.5277534 8.236424 7.42196
0000c0 05 9a 91 40 39 88 48 41 e3 38 91 40 17 b0 91 40
       4.550051 12.5332575 4.538194 4.5527453
0000d0 e0 56 d7 40 8b 76 61 40 0a 71 08 40 3b 43 21 41
       6.729355 3.5228603 2.1318994 10.078914
0000e0 78 d3 1a 41 8a 4e be 40 93 2a 35 40 f9 2e 74 40
       9.676628 5.9470873 2.8307235 3.815367
0000f0 64 db 79 41 93 a4 2e 40 17 f1 2d 40 a9 39 1d 40
       15.616062 2.7287948 2.71784 2.4566443

functional_7/batch_normalization_10/FusedBatchNormV3;StatefulPartitionedCall/functional_7/batch_normalization_10/FusedBatchNormV31 f4 [64]
000000 78 26 a0 be 36 0c ef be fa 76 1d bf cb da 24 bf
       -0.3127935 -0.46689004 -0.6150967 -0.6439635
000010 1a 67 b0 be b3 33 9d be e6 9d 8c be 23 13 e9 be
       -0.3445366 -0.30703506 -0.27464217 -0.45522413
000020 d9 7e ea be 89 1a 8a be 49 3f ea be c3 2c 9c be
       -0.45799902 -0.2697337 -0.45751408 -0.305029
000030 1d 79 80 be 5e af e3 be e8 d6 4a be f0 39 8a be
       -0.25092402 -0.44469732 -0.19808543 -0.26997328
000040 0d f7 c7 be 6c 74 b6 be 72 9f 88 be 4f 65 cd be
       -0.39055672 -0.35635698 -0.26684147 -0.40116355
000050 40 b2 21 bf 37 90 f9 be 61 7b ab be 77 46 d9 be
       -0.6316261 -0.4874284 -0.33492568 -0.42436573
000060 f7 14 92 be a0 59 a1 be 8c e9 f9 be 20 5a 9e be
       -0.2853162 -0.3151369 -0.48810995 -0.30928135
000070 61 69 af be 9e 76 8f be a5 b5 70 be 2f 42 7f be
       -0.34260085 -0.28020185 -0.23506792 -0.24927591
000080 6c 13 a3 be f2 a6 ee be d6 3c 12 bf 07 53 b6 be
       -0.31850755 -0.46611744 -0.5712408 -0.3561022
000090 22 49 ac be 3e a4 1e bf f4 c4 1f bf 33 86 94 be
       -0.33649546 -0.61969364 -0.624099 -0.29008636
0000a0 de 07 c6 be 88 c8 f6 be da 46 ae be 0c fc 07 bf
       -0.38677877 -0.48199868 -0.3403843 -0.5311897
0000b0 42 62 d0 be 90 96 1e be 59 e9 05 bf 03 24 c3 be
       -0.40699965 -0.15487123 -0.52309185 -0.38113412
0000c0 7b 0c 4e be 65 ca 14 bf 20 06 09 bf 0a 14 75 be
       -0.20121948 -0.5812133 -0.5352497 -0.23933426
0000d0 7c 29 8a be 4e c9 a2 be 01 da 04 bf 3b f1 85 be
       -0.26984775 -0.31794208 -0.5189515 -0.26160607
0000e0 d1 e2 b2 be df 77 2b bf f5 c2 af be e6 d9 b7 be
       -0.34938672 -0.66979784 -0.34328428 -0.3590843
0000f0 80 93 ed be 4e 2e 09 bf a2 94 b6 be f0 47 14 bf
       -0.46401596 -0.5358628 -0.35660273 -0.5792227

functional_7/batch_normalization_11/FusedBatchNormV3;StatefulPartitionedCall/functional_7/batch_normalization_11/FusedBatchNormV3 f4 [128]
000000 5e 7a a0 3f 14 2c 41 3f 81 b1 9e 3f da ee 5a 3f
       1.2537344 0.7545788 1.239792 0.8552071
000010 6e 47 e6 3f 07 a1 2c 3f 72 6c 23 3f f5 ec 64 3f
       1.7990549 0.6743321 0.6383735 0.8942407
000020 bc de 80 3f 98 20 96 3f 20 26 44 3f 67 03 0c 40
       1.0067973 1.1728697 0.76620674 2.1877077
000030 2c 99 37 3f 80 94 81 3f 51 b2 06 3f 96 ba 3e 3f
       0.71718097 1.0123444 0.5261584 0.7450346
000040 c4 14 6c 3f 7c 38 34 3f 5b 6d 72 3f bb 80 79 3f
       0.92219186 0.7039869 0.94698113 0.9746205
000050 b8 e9 15 40 f1 ed 2d 3f c5 d9 40 3f 1c c5 00 40
       2.34239 0.67941195 0.7533229 2.0120306
000060 8f 7f 4a 3f e4 70 5e 3f 95 ef ab 3f 85 57 39 3f
       0.7910089 0.8689101 1.343249 0.7239917
000070 76 34 cb 3e 5b d3 53 3f fd 2f a0 3f da d4 bd 3f
       0.39688462 0.8274438 1.2514645 1.4830582
000080 74 e7 11 3f eb bf 8d 3f ee db 82 3f 91 d6 81 3f
       0.56993794 1.1074194 1.0223367 1.0143605
000090 75 9b 82 3f 07 68 b2 3f 25 73 85 3f 56 0b fa 3f
       1.0203692 1.3937997 1.0425764 1.953471
0000a0 65 f4 aa 3e 10 fd 61 3f 69 14 70 3f 2d 91 82 3f
       0.33389583 0.8827677 0.93781143 1.0200554
0000b0 8d c1 89 3f a0 b0 af 3f 87 14 a5 3f 75 38 19 3f
       1.0762192 1.3725777 1.289689 0.5985177
0000c0 99 08 8a 3f 36 b4 51 3f 33 84 2f 3f b8 96 85 3f
       1.0783874 0.81915605 0.68561095 1.0436621
0000d0 81 fe 3e 3f 89 fa bf 3f eb d9 a6 3f 04 c0 10 3f
       0.7460709 1.4998332 1.3035253 0.5654299
0000e0 83 c9 8c 3f c1 80 ad 3f 33 36 f4 3f c6 62 10 3f
       1.0998996 1.3554918 1.907904 0.56400716
0000f0 22 8b 95 3f 6e 28 92 3f e5 c1 05 3f 2b 1e 81 3f
       1.1683085 1.1418588 0.52248985 1.0087332
000100 76 21 6f 3f c2 6a a6 3f 7d fc 7c 3f ed a9 d6 3f
       0.9341043 1.300133 0.98822767 1.6770607
000110 9b 86 49 3f 33 6f ec 3e a6 f8 4e 3f 6d 0c 88 3f
       0.78721017 0.46178588 0.8084816 1.0628792
000120 80 f7 ee 3f fa 7d 3d 3f 1b 95 bd 3f bd 70 0a 3f
       1.8669281 0.7402035 1.4811128 0.54078275
000130 e9 38 9b 3f 75 8d 4c 3f 50 27 b8 3f bd 58 a6 3f
       1.2126743 0.79903346 1.4386997 1.2995831
000140 1f 92 8e 3f 5f 4e 87 3f 6a 4c e2 3f 9a 60 18 3f
       1.1138343 1.0570792 1.767957 0.595224
000150 3a 79 82 3f 68 37 52 3f 27 ce ed 3f 56 35 65 3f
       1.0193245 0.82115793 1.8578538 0.8953451
000160 35 6e 12 3f 8d 34 69 3f 38 ed 30 3f c3 d7 e6 3e
       0.5719941 0.9109581 0.6911197 0.45086488
000170 27 16 8f 3f e4 d7 84 3f e2 1d 35 3f c1 64 44 3f
       1.1178635 1.0378385 0.7074872 0.7671624
000180 2a 40 b4 3f 01 e4 13 40 bc 6c a5 3f e9 42 84 3f
       1.4082081 2.3107913 1.2923808 1.0332919
000190 e2 04 90 3f f8 29 90 3f 33 f6 49 3f 7b bc a9 3f
       1.125149 1.1262808 0.78891295 1.3260645
0001a0 55 e4 3c 3f cc c0 4e 3f d7 73 6d 3f 4d 2f 53 3f
       0.7378591 0.80762935 0.9275488 0.8249405
0001b0 9e 5d d1 3f 1f bf 49 3f 75 6a e4 3e 3a bc 79 3f
       1.6356695 0.7880725 0.4461247 0.97552836
0001c0 9e df e7 3f f3 62 48 3f b4 d1 a0 3f 7c a7 59 3f
       1.8115118 0.78275985 1.2563996 0.85021186
0001d0 b9 18 a5 3f cb 7a 92 3f bd fd 3f 3f 1e 48 85 3f
       1.289817 1.1443723 0.7499655 1.0412633
0001e0 d4 10 50 3f 9c 06 f7 3f 84 a3 11 3f 0f a2 15 3f
       0.8127568 1.9298892 0.5689013 0.58450407
0001f0 a7 98 8c 3f 63 98 1f 3f 22 95 21 3f 1a f1 67 3f
       1.0984086 0.623419 0.63118184 0.90602267

functional_7/batch_normalization_11/FusedBatchNormV3;StatefulPartitionedCall/functional_7/batch_normalization_11/FusedBatchNormV31 f4 [128]
000000 54 06 1a bf ef fc 1c bf ff 62 0c bf 2c f6 f3 be
       -0.60165906 -0.61323446 -0.54838556 -0.47648752
000010 0d 3a 0d bf 52 a4 14 bf 4d 14 29 bf 87 30 27 bf
       -0.55166703 -0.5806323 -0.660466 -0.6530842
000020 3d 7c 19 bf e8 39 08 bf ce 73 24 bf 86 95 03 bf
       -0.599552 -0.5321336 -0.64239204 -0.5140003
000030 d8 0b 20 bf c0 25 1b bf 2e ba 26 bf 3f 20 17 bf
       -0.6251807 -0.60604477 -0.6512784 -0.5903358
000040 96 c6 d2 be 44 ed 13 bf 22 fe 25 bf 37 5d 22 bf
       -0.41167134 -0.57783914 -0.648409 -0.63423485
000050 ab b2 08 bf d7 da 03 bf 86 d4 12 bf 9a 1e e6 be
       -0.53397626 -0.515058 -0.57355535 -0.44945222
000060 5b ec 07 bf 24 bb 31 bf 61 ad 15 bf 96 3a 0c bf
       -0.53095025 -0.6942618 -0.5846768 -0.54776895
000070 56 4c 3e bf 6e 25 11 bf fd 12 0e bf e3 6d 18 bf
       -0.7433523 -0.5669774 -0.55497724 -0.59542674
000080 1b 50 09 bf 5c 24 f7 be 4e d4 0e bf a7 b0 e4 be
       -0.53637856 -0.48269928 -0.557927 -0.44666025
000090 77 34 0e bf ad 1b 09 bf 33 5e 28 bf 4b fb f5 be
       -0.55548805 -0.53557855 -0.65768737 -0.48043284
0000a0 60 96 12 bf ad b6 f2 be 04 02 05 bf ad 99 f5 be
       -0.57260704 -0.47404996 -0.519562 -0.47968808
0000b0 9a 86 22 bf 75 7a 23 bf f8 13 07 bf f2 5b 1c bf
       -0.63486636 -0.6385873 -0.52764845 -0.610778
0000c0 21 5c 29 bf 79 6d 1d bf f0 fb 01 bf 53 e5 06 bf
       -0.661562 -0.61495167 -0.5077505 -0.5269367
0000d0 cd d1 11 bf 64 62 08 bf 10 0c 30 bf 24 5c 17 bf
       -0.56960756 -0.5327513 -0.68768406 -0.5912497
0000e0 b7 9f 38 bf 4b 3b 01 bf 5d 2a 03 bf 95 d9 1c bf
       -0.72118706 -0.504811 -0.51236516 -0.61269504
0000f0 2f 7e 03 bf b3 01 18 bf 62 e3 15 bf 9a 19 28 bf
       -0.51364416 -0.5937759 -0.58550084 -0.65664065
000100 49 7e 04 bf 79 03 10 bf 9f 78 12 bf 50 46 0d bf
       -0.51755196 -0.562553 -0.57215303 -0.55185413
000110 dc b2 21 bf 07 87 1f bf 25 58 35 bf 45 22 12 bf
       -0.6316354 -0.6231541 -0.7083762 -0.5708354
000120 58 e0 fe be a1 a6 0a bf 07 e7 17 bf af 56 2e bf
       -0.49780536 -0.54160506 -0.59336895 -0.6810102
000130 36 b9 42 bf 9a f1 11 bf 37 50 25 bf 5a 93 23 bf
       -0.7606386 -0.5700928 -0.64575523 -0.63896716
000140 0f c4 26 bf c9 86 1e bf b6 c1 f7 be c8 32 28 bf
       -0.6514291 -0.61924416 -0.48389977 -0.65702486
000150 f6 f9 02 bf e7 d1 01 bf a2 71 ee be cb c0 13 bf
       -0.5116266 -0.5071091 -0.4657107 -0.57716054
000160 94 8a f5 be 0d 43 16 bf cf 95 08 bf ed 97 19 bf
       -0.4795729 -0.5869606 -0.5335359 -0.59997445
000170 5f 9b 28 bf de 58 2d bf 4d 15 07 bf 49 a4 2a bf
       -0.6586208 -0.67713726 -0.5276688 -0.6665693
000180 0d e6 30 bf 16 2b f7 be 08 77 0c bf 22 ba 00 bf
       -0.6910103 -0.4827506 -0.5486913 -0.50284016
000190 51 45 2f bf 1c ff fb be 92 fc 17 bf c8 06 0e bf
       -0.68465143 -0.4921807 -0.59369767 -0.554791
0001a0 73 c9 04 bf 8f 97 34 bf 9e 0c 30 bf f5 a7 16 bf
       -0.5186989 -0.7054376 -0.6876925 -0.5885003
0001b0 a8 6b 13 bf 96 c8 21 bf d9 00 07 bf da 08 09 bf
       -0.57586145 -0.63196695 -0.5273567 -0.5352913
0001c0 3d 68 12 bf 8e 3e 1f bf f7 05 01 bf b7 b2 0e bf
       -0.57190305 -0.62204826 -0.50399727 -0.5574145
0001d0 15 dd eb be 50 87 ed be 25 33 0a bf 00 9b 2e bf
       -0.4606711 -0.46392298 -0.5398429 -0.6820526
0001e0 43 6c 07 bf 53 7a 15 bf 5c f7 18 bf 2d 17 e9 be
       -0.5289957 -0.58389777 -0.5975244 -0.45525494
0001f0 87 05 10 bf 5f 49 0d bf 38 92 09 bf c3 76 01 bf
       -0.56258434 -0.5519008 -0.5373874 -0.5057184

functional_7/word_dense/Tensordot/MatMul;StatefulPartitionedCall/functional_7/word_dense/Tensordot/MatMul f4 [50, 50]
000000 d1 db 02 bb 8f ee 34 3e c8 b0 9b 3d 33 a6 ab 3d
       -0.0019967447 0.17669128 0.07602078 0.08381309
000010 77 b0 b4 3c c1 16 2f be 43 01 67 3e 5d f4 cd bc
       0.022056801 -0.17098524 0.22559075 -0.025140936
000020 34 29 05 3e 28 e3 3f 3e a1 bd b3 3d b8 e9 90 3e
       0.13003999 0.18738997 0.08776403 0.28303313
000030 2e 9d 4f be 7a ec aa 3d eb ca 02 3c c5 d2 31 3d
       -0.20274803 0.083458856 0.00798295 0.043413896
000040 b9 3c a8 3d 16 66 5a 3e 61 d8 20 be 7f 1b 08 3e
       0.08214707 0.21328005 -0.15707542 0.13291739
000050 3d ac 4e 3e 64 8c 77 be c6 b2 e9 3d dc ec 6a 3e
       0.20182891 -0.24174649 0.114110515 0.22941917
000060 b1 b0 12 be fd 6b 8a 3e 9b 47 21 3e db 82 10 be
       -0.14325215 0.27035514 0.15749972 -0.14112417
000070 5d 1b 11 3e a2 a2 20 3e a7 2f 86 3e 08 87 15 be
       0.14170595 0.1568704 0.2620823 -0.14602292
000080 ce ea 8a be 06 fa 89 3d 21 06 71 3d fe 8a 3c be
       -0.27132267 0.06737141 0.058843736 -0.18412396
000090 9d cf 40 3e fe 6c 93 3e 24 25 7c be 6b a2 55 3e
       0.18829198 0.28794092 -0.24623543 0.20862739
0000a0 0f f1 6c 3e 12 a5 69 be 49 ac 8b 3e b7 24 4b bd
       0.23138832 -0.22816876 0.2727988 -0.04959556
0000b0 a9 bd 75 3e 3b 4c 43 3d 03 a4 af bb 49 c7 2b 3e
       0.23998131 0.04768012 -0.005360128 0.1677524
0000c0 7b 10 fc 3d d0 07 51 be de af 0c 3e ca 2a 5d bd
       0.12307831 -0.20413136 0.13738963 -0.053995885
0000d0 1b 4c 15 3e c2 7b 8c 3e a0 f4 9f bd da 89 ed bc
       0.14579813 0.2743817 -0.078103304 -0.028996397
0000e0 03 06 8e 3e d6 67 1a be b6 02 60 3d 58 ac 88 be
       0.27738962 -0.15078673 0.054690085 -0.26693988
0000f0 ec 47 c5 3c 91 2a 99 3e fa ff 44 3e 7a b0 4b 3d
       0.024082147 0.29915288 0.19238272 0.049728848
000100 fc ed b7 3d 0c 08 31 be 1e 3d d4 3d 65 f6 49 3e
       0.08980939 -0.17288226 0.1036322 0.19722898
000110 1a 62 68 be b1 4e 54 3e e3 7e 54 3e 1c 8a 98 3d
       -0.22693673 0.20733143 0.20751528 0.07448217
000120 23 5c 96 3e aa 93 62 3e 55 01 80 be 51 90 c6 bd
       0.2936717 0.22126642 -0.25001016 -0.09695495
000130 37 91 8e 3e ae 67 b6 bd 78 a6 4b 3e 31 6c 1d be
       0.27845165 -0.08906494 0.19887722 -0.15373303
000140 2c b8 28 be 16 ec f5 3c 4f e5 9a bd 9c c4 08 be
       -0.16476506 0.030019801 -0.075632684 -0.1335625
000150 eb b9 ea bd e7 4f 50 be 20 b9 43 3e 0e 43 d6 3c
       -0.11461242 -0.2034298 0.19113588 0.026155021
000160 c0 17 64 be 6b ff 02 3e a8 52 41 3d 4d 57 91 3c
       -0.22274685 0.12792747 0.047197968 0.017741824
000170 bd c0 66 3d 9e 99 31 bd 81 85 a3 bd 5b 56 4f be
       0.056336153 -0.04335939 -0.07984448 -0.20247786
000180 68 04 33 be bc 62 76 3e a4 f8 80 3c 06 13 85 bd
       -0.1748215 0.24061102 0.015743561 -0.06497769
000190 80 b5 e7 3d d5 15 5b 3d d7 c7 30 3e 63 08 25 3e
       0.11313915 0.053487618 0.17263733 0.1611648
0001a0 ba 21 fa 3d ee e1 7f 3e 09 9f 72 bd 76 41 55 be
       0.12213464 0.24988529 -0.0592337 -0.20825753
0001b0 4c 88 12 bc 35 9f 81 3e 93 3f 30 3e 9b 3e 8e 3c
       -0.0089436285 0.25316778 0.17211752 0.017363837
0001c0 37 19 74 be 1b ca 1b be 6b b7 4b 3e af b5 0a 3e
       -0.23837744 -0.15213816 0.19894187 0.1354587
0001d0 37 16 22 3e 3e 83 89 be d6 7e f7 3d c7 17 6b be
       0.15828787 -0.26857942 0.12084739 -0.22958289
0001e0 48 aa 67 3d 8c 6c 39 3d 24 c7 f6 bb 26 cb 41 3e
       0.056558877 0.045269534 -0.0075310636 0.18925151
0001f0 b1 d6 92 3d 61 75 1d 3e df f5 92 be e1 a1 88 be
       0.071698554 0.15376808 -0.2870321 -0.26686004
000200 27 ab 97 3e dd 3d 8e be ce cc 21 be 8d 04 ac 3b
       0.29622766 -0.27781573 -0.15800783 0.005249566
000210 d4 63 a2 be f8 bb a9 3d 65 eb 0d bd 8f b6 ca 3e
       -0.31716788 0.08287805 -0.034648318 0.39592406
000220 6d f6 74 3b 65 44 9b be 96 fa 03 3e 1a ed 31 be
       0.0037378327 -0.30325618 0.1288856 -0.17375603
000230 fd c5 87 be 4c 3a 9b 3d 75 a8 b0 be fe 8f 4d be
       -0.2651824 0.075794786 -0.34503523 -0.2007446
000240 0c 9f 2d be 72 91 5b 3e 2e 53 64 3e 6b 10 9f be
       -0.16955203 0.21442202 0.22297356 -0.31067213
000250 57 a5 17 be bb 43 5c 3e 94 cb 74 bd bd f5 19 bb
       -0.14809166 0.21510212 -0.05976446 -0.0023492419
000260 f8 04 08 bd 7d a1 45 3e b3 9f 09 3e 3e db 5c bd
       -0.033207864 0.19299884 0.13439827 -0.053920023
000270 7f 07 0e be 8b 37 5b 3d ce 86 5f 3e 65 6a 17 3e
       -0.13870047 0.053519767 0.21828768 0.1478668
000280 1a 45 0b 3e 28 25 da 3c 7c 3a 4f 3e 34 bd c8 bd
       0.13600579 0.026629046 0.20237154 -0.09801713
000290 56 68 a9 bd b3 ab 83 3e 87 82 24 be fb 91 92 3d
       -0.082718536 0.25716934 -0.16065417 0.0715675
0002a0 47 ad 13 bb a1 81 5f be ed 42 18 be ee 08 72 3e
       -0.0022533701 -0.21826793 -0.1486928 0.23636219
0002b0 b9 69 5a 3e 31 6e 01 3e aa c4 0e be 73 a5 66 3e
       0.21329392 0.12639691 -0.13942209 0.22524051
0002c0 9f 61 80 3e bb bf d8 bb 9e 84 2f be 67 c7 b7 bd
       0.2507448 -0.006614653 -0.17140433 -0.0897358
0002d0 69 0f 48 3d fc 87 fd bd 83 08 2f be e8 6d 2c be
       0.04884282 -0.123794526 -0.1709309 -0.16838801
0002e0 0e d6 44 be 14 9b b1 bd 89 b7 ec 3a 64 70 f8 3d
       -0.1922228 -0.08672157 0.0018060069 0.12130812
0002f0 d2 9f 2a 3e 0e 7c 97 bd 1a 65 c3 3d 96 43 61 bd
       0.16662529 -0.073967084 0.09540768 -0.054996096
000300 06 7b 35 bc 9a e9 a1 3b 61 9e 31 3e b3 22 6f 3d
       -0.011076694 0.0049411776 0.17345573 0.0583827
000310 f1 3a 34 3e 6c eb d2 bd 89 12 83 be e3 fb 22 3e
       0.1760061 -0.102988094 -0.2560008 0.159164
000320 48 9e 1d bd b7 aa 11 3e 2c c4 50 bd a0 bd 18 3e
       -0.038481027 0.14225279 -0.050968334 0.14916086
000330 75 cf 0c bd 65 c5 c5 3c b0 51 66 3c da 4e 94 3d
       -0.034377534 0.024141977 0.014057562 0.07241602
000340 84 21 06 be d7 1e a4 bd 0c 07 63 3e 58 9d 32 be
       -0.13098723 -0.08013695 0.22170657 -0.17442834
000350 b4 dc 16 be 2b 23 67 3e 75 19 df bd e6 6c 05 3e
       -0.14732629 0.2257201 -0.108935274 0.13029823
000360 ec 1f b3 3d f4 59 9b 3c 9e e2 07 3e ac 18 54 be
       0.08746323 0.018963791 0.13270041 -0.20712537
000370 25 b4 24 be 7b 48 96 3e 9e 19 26 3e b8 55 fa bd
       -0.16084345 0.29352173 0.1622071 -0.12223381
000380 09 2d 84 3e 2d 16 91 bd ce 73 70 be 20 10 86 be
       0.2581561 -0.07084308 -0.23481676 -0.26184177
000390 e1 80 97 bc 6a 55 90 3e b9 c5 48 be ae d2 ce bd
       -0.018494071 0.28190166 -0.19606675 -0.10098778
0003a0 1c 11 9d 3e a6 32 55 bd 67 8e 29 3e b3 18 30 3e
       0.30677116 -0.052050255 0.16558228 0.17196922
0003b0 3a 63 a5 3d ab 5c f3 bd 38 ab 72 3e 3d 77 a2 be
       0.080755666 -0.118829094 0.23698127 -0.31731597
0003c0 5b df 51 be a1 1d 26 3e bb 4d 52 3d df cc 75 3e
       -0.2049536 0.1622224 0.05134366 0.24003933
0003d0 f7 b8 83 3d 80 e3 7f 3e 1b f1 b6 3d 60 af 47 3e
       0.064317636 0.24989128 0.08932706 0.19500494
0003e0 6d 01 74 3d ec db 56 be ba 71 43 3e 12 ca 12 3d
       0.059571672 -0.20982331 0.19086352 0.03583724
0003f0 cd d3 34 be 86 a4 ad 3d 01 ca 1b 3e f8 a9 18 3d
       -0.1765892 0.08478646 0.15213777 0.03727147

functional_7/word_attention/MatMul;StatefulPartitionedCall/functional_7/word_attention/MatMul f4 [50, 50]
000000 4e af a8 3c 18 71 2e bd 80 fa 0e 3e d2 fc ac bc
       0.020591404 -0.042588323 0.13962746 -0.021116648
000010 b6 36 e7 3c ce 7c d3 bd 55 81 56 bd 61 40 aa 3d
       0.02822433 -0.10326539 -0.052369434 0.083130606
000020 b6 e7 d7 3b f2 f2 5a 3d af e9 39 3d 93 31 86 3c
       0.0065889014 0.053454347 0.045388874 0.01638106
000030 41 6c 54 bd bc b3 a7 bc 9f 2a 85 3d af 85 14 be
       -0.05186105 -0.020471446 0.0650227 -0.14504121
000040 b6 f5 6f bd 97 ba 58 3d 7d 55 ad 3b e6 3d 08 3e
       -0.058583938 0.05291232 0.005289732 0.13304862
000050 49 ec eb 3c 77 88 8e bd 3a 7d ab 3d 2d f0 bc bd
       0.028799193 -0.06959622 0.083734944 -0.092254974
000060 ec ff e5 bd ad 88 12 bd ff 55 0c 3d 4f 98 86 bd
       -0.11230454 -0.035774875 0.0342617 -0.06572019
000070 3f 27 13 3d aa cf 0f 3d fa 39 3e bd a7 62 c4 3c
       0.0359261 0.035110153 -0.04644201 0.023972822
000080 98 76 93 3d 05 30 97 3c 79 fc 29 3d f3 5d 2e bd
       0.07200354 0.018455515 0.041500542 -0.042570066
000090 62 1f 24 3d 95 40 9a 3a 55 28 91 bd 4b f7 88 bd
       0.04006899 0.0011768515 -0.07087771 -0.066877924
0000a0 2d 6e b9 bb 84 4a 95 bd af af 18 bc 93 8b 81 3c
       -0.005658886 -0.07289603 -0.00931923 0.015813624
0000b0 16 fa a9 bd bc 61 29 3c 85 17 92 bd 16 17 7a 3d
       -0.08299653 0.010338243 -0.07133392 0.061057173
0000c0 84 d8 e2 3b 46 a0 bc bc eb d9 45 3a fa 91 fd 3d
       0.0069227833 -0.023025643 0.0007547426 0.123813584
0000d0 26 73 f8 3d a6 58 96 3c c8 c5 cb 3c 77 83 07 3c
       0.12131338 0.018352818 0.024874583 0.00827109
0000e0 85 bc b8 bc 4f 6f 9f bc e1 8e 60 3a 1b cd 36 bd
       -0.02255083 -0.019462256 0.00085662125 -0.044629198
0000f0 9e 4d 2a 3e e7 56 eb bd 25 75 75 3c 30 c9 c3 3a
       0.16631171 -0.11491185 0.014981543 0.0014937278
000100 9e f7 50 3d 1e fa 71 bd 1a a3 dc bc 65 3b 3d bd
       0.051017396 -0.05907642 -0.026933242 -0.04619922
000110 db 0e ab 3d 30 2e 7a 3d 2f c6 0a 3d 1e 50 6a 3c
       0.08352443 0.061079204 0.03388041 0.014301328
000120 a3 f2 ce 3c 0b 37 be bd 68 ca 38 bd 8f 31 a5 bc
       0.025262183 -0.09287842 -0.045114905 -0.020165233
000130 60 19 81 bd 9a 82 96 3c 77 3f ef 3c 39 6f 92 3d
       -0.06303668 0.018372823 0.029205067 0.0715012
000140 06 9d 47 bd ad 80 2c bd 35 e1 94 bd db 9c e9 3d
       -0.048733734 -0.042114902 -0.07269517 0.11406871
000150 1f 5d 83 3d 95 58 20 bd ca 7d 9e bc a0 76 a9 bd
       0.06414246 -0.03914698 -0.01934709 -0.08274579
000160 71 37 18 be 71 67 f6 bb 7a 89 90 bd ac 08 f4 bb
       -0.14864899 -0.0075196554 -0.070574716 -0.007447323
000170 86 44 c3 3d 8f 57 a2 bd e9 9d 5a bd f3 60 2f bd
       0.09534554 -0.07926857 -0.05337325 -0.042817067
000180 46 39 8a bd 4d 33 03 bd e2 74 6d 3d da 61 1f be
       -0.06749205 -0.032031346 0.057972796 -0.15564671
000190 89 cf a5 bd e9 49 01 be 6e e9 ef 3d 72 71 83 bc
       -0.08096225 -0.1262585 0.11714445 -0.016045306
0001a0 48 30 0b 3d f6 dc af bd 61 20 5e bd a0 6e 60 bd
       0.03398159 -0.08587067 -0.054230098 -0.054793
0001b0 4f 6d ac bd e9 38 f2 bd 41 b3 a2 bd 9a 83 79 bc
       -0.084192865 -0.11827261 -0.07944346 -0.01522913
0001c0 4f 50 b9 bd 12 19 45 bd 1a ac a6 bd 8f 7d b3 bd
       -0.09048521 -0.048119612 -0.081382945 -0.08764183
0001d0 9a ac 8e 3d 4a 8e 06 3d 38 eb f2 bd d0 f8 8b bd
       0.06966515 0.03285054 -0.11861271 -0.068345666
0001e0 b1 3a c1 3b 3b 25 ea bc 5a f3 88 bd 9f e6 8a bd
       0.005896889 -0.028582206 -0.066870406 -0.06782269
0001f0 04 56 9c 3c 8a 23 61 bd 57 98 04 bd b9 e3 ad bd
       0.019083984 -0.054965533 -0.032371845 -0.084907
000200 03 65 bd bc a7 91 d3 3c 8a 77 e3 bd 21 85 ca bc
       -0.023119455 0.025826288 -0.11106785 -0.024721684
000210 d2 f2 46 3c 1c b0 8b 3c fc c3 51 bd c4 9d 80 3d
       0.012142854 0.017051749 -0.051212296 0.062800914
000220 ee b4 be bb a1 ea fc 3c 9c 73 29 bd a2 af 8d 3c
       -0.0058199083 0.030873599 -0.04137002 0.017295662
000230 8a 86 2e bd 5b 70 15 bd 22 06 45 bd b7 18 b7 bb
       -0.042608775 -0.036484104 -0.04810155 -0.005587663
000240 32 e1 0a bd 9a cb fb bc f1 f2 7b 3c d5 d3 1c bd
       -0.03390617 -0.030736733 0.015377746 -0.038287956
000250 43 86 15 bd c6 54 b0 3d 80 10 6b bc 2f 2c 27 bb
       -0.036504995 0.08609919 -0.014347196 -0.0025508513
000260 b6 30 3f 3d 53 09 69 bd 11 35 ae 3a d1 6e a0 bd
       0.046677314 -0.056893658 0.0013290962 -0.078336366
000270 b3 70 0d 3c 7e 9e f8 bc 3e bc bf 3c 7e eb 15 3b
       0.008632827 -0.030349012 0.02340519 0.002287596
000280 2e 62 43 3c ce a3 b2 bd dc 4b c4 bc c5 c1 74 bc
       0.011925263 -0.087226495 -0.023961954 -0.014938776
000290 b1 2f 55 3d 44 c5 93 bd bf 97 86 3c aa 8e c2 bd
       0.052047435 -0.0721536 0.01642978 -0.09499867
0002a0 59 f4 7c 3c 7f 40 09 3c b8 ef e4 3d ff b3 f9 bc
       0.015439116 0.0083771935 0.11178535 -0.030481337
0002b0 04 52 7a 3d f8 c6 a2 bd 4b 9b 8e bd 0d d5 14 3d
       0.061113372 -0.079481065 -0.069632135 0.036335994
0002c0 0e 44 26 bc a7 0c 28 37 c4 cf e5 bc f5 55 59 3c
       -0.010148061 1.0016526e-05 -0.028053172 0.013265123
0002d0 67 78 c5 3c ee e8 90 bd b9 31 17 bd 4b 17 39 b9
       0.024105264 -0.07075678 -0.036912654 -0.00017651652
0002e0 6b 40 26 3d a8 62 81 bd f9 b4 18 3c da 10 26 bd
       0.040588778 -0.06317645 0.009320491 -0.040543415
0002f0 6a 59 30 bc b8 53 ac 3d 84 1f 7c 3d 37 40 8d 3c
       -0.0107635055 0.084144056 0.061553493 0.017242534
000300 1c 6c 11 3d f8 8b dc bd 2a 25 59 bd 54 21 f9 3c
       0.03550349 -0.107688844 -0.053013958 0.0304114
000310 74 2d 8d 3c 5c a0 a4 bc 1b 5a 2f 3d 8b a6 ea bd
       0.017233588 -0.020095997 0.04281054 -0.11457547
000320 59 b5 03 be 3c 07 84 bd d0 84 19 3e 6a 6e 7e bd
       -0.12862147 -0.06446692 0.1499207 -0.062117018
000330 bd 11 b1 bc 3f ed bc bd 44 e3 03 3d 0c 57 05 bc
       -0.021614904 -0.092249386 0.03219916 -0.008138429
000340 c5 79 c3 bc d4 7d 42 bb cf 67 7d 3c 42 68 9c bd
       -0.023861775 -0.002967705 0.015466644 -0.07637073
000350 0f 51 07 3d 4d ec 6e 3c ee 21 0f 3e 82 e1 a8 bd
       0.033036288 0.014582706 0.13977787 -0.08246137
000360 de bb 3a bd 4e 35 ad bd 0e 0d dd bd 34 f9 82 bd
       -0.04558932 -0.08457433 -0.107935056 -0.06395188
000370 e1 95 9c 3d db 6a 13 3c 31 6d 0b bd 39 8b 6a bd
       0.07645775 0.008997644 -0.03403968 -0.05726168
000380 b0 7e 28 3d 20 7e a1 bb 81 59 ea bd 74 22 40 3d
       0.041136444 -0.0049283653 -0.11442853 0.046907857
000390 4c 5b 17 bd 47 68 c1 3b 7e f1 bd 3a 26 50 ed bb
       -0.0369523 0.0059023234 0.0014491526 -0.0072422205
0003a0 b6 4e bf 3c 77 21 01 be 6d 0b 06 bc 47 72 79 bd
       0.023352962 -0.12610422 -0.008181435 -0.0609
0003b0 06 cd 91 bc ac a6 8d bd da d0 b4 bc 8b 25 39 bd
       -0.017797958 -0.06916556 -0.022072244 -0.04520182
0003c0 d6 d1 20 3d 63 51 87 bc 5a 42 77 bc e1 dd 2b bc
       0.039262615 -0.0165183 -0.015091503 -0.010489912
0003d0 66 f3 bc 3c c3 96 48 bd ed 80 92 bd 80 d3 e9 bd
       0.02306528 -0.048971903 -0.07153497 -0.114172935
0003e0 b2 ae cd bd c3 65 92 bc 44 d4 31 3e 08 76 86 3d
       -0.10043086 -0.01787079 0.17366129 0.065654814
0003f0 62 cd d6 bd 2d 60 84 3d e5 59 e4 3c 6c 9e b8 3d
       -0.104883924 0.064636566 0.027874896 0.090145916

functional_7/word_attention/MatMul_1;StatefulPartitionedCall/functional_7/word_attention/MatMul_1 f4 [1, 50]
000000 12 f8 16 3e a9 d4 f4 3d 63 59 96 3d e1 1c 0e 3e
       0.14743069 0.11954624 0.07341268 0.13878204
000010 fe 00 21 3e bb 3a b7 bd aa 5e b2 bd fc 54 11 be
       0.15723035 -0.08946749 -0.08709462 -0.14192575
000020 3e 93 82 be 0a 8a 40 3d 82 69 0e 3e fd 17 09 3e
       -0.25502962 0.047006644 0.13907436 0.13388057
000030 d2 4e 13 3e 68 ee 29 3e 62 24 96 bd 0a 45 3a be
       0.14385536 0.16594851 -0.07331158 -0.18190399
000040 a1 4e 2f be c6 e1 1e be a3 08 86 bd 35 da 17 be
       -0.17119838 -0.15515813 -0.06544616 -0.14829333
000050 e2 b3 32 3e 91 bf 30 3e 1c e6 a5 3d 09 3f 12 be
       0.17451432 0.17260577 0.081005305 -0.14281859
000060 3b ef 99 bd 5e 3d 40 3e 46 b8 04 be 19 62 80 be
       -0.07516333 0.1877341 -0.1296092 -0.25074843
000070 ae df a1 bd 46 d7 6e 3e e6 10 45 be e0 e5 4f 3e
       -0.07903992 0.23324308 -0.19244727 0.20302534
000080 f1 48 81 3e fe 2b 1f 3e b7 54 15 be 89 eb d3 3d
       0.25250962 0.15544125 -0.14583097 0.10347659
000090 3f 2e 04 3e f4 ee db 3d 2a 3a 99 3d 64 0e 8e 3e
       0.12908266 0.10738936 0.07481797 0.27745354
0000a0 5f d5 2d 3e 59 dd cc bd eb e5 5d be e3 20 9d bd
       0.16975926 -0.10003156 -0.21669738 -0.07672288
0000b0 f8 ed ed 3d 0d 35 4d be 9f ab 1a be e2 fc a5 bd
       0.116176546 -0.20039769 -0.15104531 -0.08104874
0000c0 ce e2 8a bd 7f 3d ba 3d
       -0.06781541 0.09093761

functional_7/dense_3/MatMul;StatefulPartitionedCall/functional_7/dense_3/MatMul f4 [5, 50]
000000 87 0d e6 3b 3f 48 ff bb 6e d4 00 bc 11 c5 36 ba
       0.0070206556 -0.007790595 -0.007863147 -0.0006972114
000010 c6 38 bf 3b e6 1e 1a 3a 44 3f 6e ba 0f 0a 83 ba
       0.0058356253 0.0005879238 -0.0009088407 -0.0009997505
000020 2c 07 79 bb aa f7 a8 bb 84 4f aa bb f7 a3 38 3c
       -0.003799866 -0.005156477 -0.0051974673 0.011269561
000030 cb 75 c4 ba 53 df 2d bc f8 6b 1a bc 0a 4c f5 ba
       -0.0014988718 -0.010612327 -0.009425156 -0.0018714678
000040 61 ea 96 ba ce dd 28 3a d4 75 2b bc de 35 7d bb
       -0.0011513942 0.0006441743 -0.010465104 -0.0038636844
000050 21 07 df bb 71 fc 94 ba 0e 79 05 bc 7d f6 ce b9
       -0.0068062698 -0.0011366737 -0.0081465375 -0.0003947503
000060 03 b6 35 ba d8 ab be 3b ed 03 d7 3c c4 47 0f bb
       -0.0006931724 0.005818825 0.02624699 -0.0021862844
000070 68 a8 0f 3a 63 99 1e bb fb 4d 07 bc 8f 07 39 bb
       0.00054801116 -0.0024200312 -0.008258338 -0.0028233265
000080 11 91 3d 3c ba a5 5d bb d0 6a 7e bb bc b6 92 3c
       0.011570231 -0.0033820705 -0.003882099 0.0179094
000090 f6 23 58 3a 26 94 9c 3c af 3e 6f ba 98 8a ce bb
       0.00082451047 0.019113611 -0.0009126467 -0.0063031428
0000a0 15 06 81 bc 7c 21 14 bc 51 43 ff bb 82 ff bb 3c
       -0.01574997 -0.009041186 -0.007790007 0.022948984
0000b0 92 24 a5 b9 a3 77 cd bb b6 6c 29 ba 26 7d 7c bb
       -0.000314985 -0.0062703653 -0.00064630376 -0.0038526743
0000c0 0b e4 5e ba 61 7a 20 3d 4a b6 29 3d 35 3e c1 3c
       -0.0008502609 0.03917921 0.04143361 0.023589233
0000d0 2b f7 a0 bc 4f 3b 70 3b 38 7d 97 bc d9 7b 65 3a
       -0.019649109 0.0036656444 -0.018492326 0.00087541115
0000e0 fe 52 d4 b9 71 ad e3 39 f8 87 05 bc e5 86 8f 3c
       -0.00040497625 0.00043426038 -0.008150093 0.017520377
0000f0 35 48 3a bc 8c 22 df ba 5b a3 ee 3a 37 3b 54 3b
       -0.011369755 -0.0017023846 0.0018206643 0.0032383928
000100 c0 67 ba bc 24 36 86 3a 4b 94 50 b7 de 3e 69 b9
       -0.02275455 0.0010239524 -1.2432293e-05 -0.00022244031
000110 ca ea 19 3d 27 a5 5a 3c e7 17 0e bb 0b 1a f7 b8
       0.037577428 0.013345039 -0.0021681727 -0.00011782729
000120 f5 b3 ac 3c d9 3c 69 b9 ca e3 33 35 f8 46 9c bb
       0.021081904 -0.00022243279 6.7014173e-07 -0.0047692023
000130 9b 21 a4 3b d2 9c 87 bb f5 0a b5 3c 08 cf 5b bb
       0.005008889 -0.0041385675 0.022099951 -0.0033540148
000140 a3 ba 2b 3c a8 b5 87 bb e9 dd 0d bc 2e 6a 8a 3c
       0.010481509 -0.004141528 -0.008658865 0.016896334
000150 dd 8a cc bb 63 0d 3e bb f2 67 96 3b 57 d0 5e bc
       -0.0062421397 -0.0028999678 0.004590028 -0.013599477
000160 bd 0c ad 39 dd ee 28 3b 98 f8 99 3c 5e ae 0b bb
       0.00033006622 0.002577714 0.018795297 -0.0021313648
000170 2c 61 51 3b e7 f7 1c bc f5 80 50 ba d3 ea 9f 3c
       0.0031948788 -0.009580589 -0.00079537864 0.019521153
000180 62 ff 8d 3b 2b 43 30 3c 37 95 2d 3a dd 35 b6 bc
       0.0043334225 0.010758202 0.0006621661 -0.02224248
000190 4c fe 5d bc 08 3a f4 bb 12 58 1f bc 55 dc 20 ba
       -0.013549399 -0.007453207 -0.009725587 -0.00061363477
0001a0 20 07 a6 3c e4 5f 5d ba 54 3c 25 3b 14 a4 92 3b
       0.02026707 -0.000844477 0.002521296 0.004475126
0001b0 8f 55 be bb 47 d4 53 3b cc 83 af 3b 69 ec ca bb
       -0.005808539 0.0032322572 0.0053562876 -0.006192733
0001c0 29 a4 06 3b 2c af 4f bc dd ee 0a 3d cf 8b 23 3b
       0.0020544624 -0.012676042 0.033919204 0.0024955159
0001d0 3d 8f 22 ba 3b 76 d4 3a 4d b1 bc bb 60 b5 6e bb
       -0.0006201154 0.0016209552 -0.0057584406 -0.0036424026
0001e0 22 ad 00 bc 9c ec c1 ba 24 08 7d b9 06 12 80 38
       -0.007853778 -0.0014795247 -0.00024130993 6.106873e-05
0001f0 28 93 9f ba a5 fa 68 3b 17 13 1d bc 2b 43 00 bb
       -0.0012174593 0.0035549786 -0.009587071 -0.0019571285
000200 2f 0e c2 bb d2 c9 14 3b 96 66 21 bc 4e ab 07 bb
       -0.005922101 0.0022703302 -0.009851119 -0.002070147
000210 3a 69 91 bb 70 97 06 bc b4 9b 9d 3c 6d 48 bb bb
       -0.004437593 -0.008214816 0.019239284 -0.005715421
000220 cc 14 cf ba 3f f0 f9 bb 09 89 03 b9 40 3d ba bb
       -0.0015799045 -0.0076275165 -0.00012544183 -0.005683571
000230 5a bd 15 3c fb f5 d2 3c 2d ff ac 3b 5f 67 b6 39
       0.009139383 0.025752058 0.0052794428 0.00034790763
000240 e7 fa 0d 39 72 c3 ad bb ae bd 6f ba b3 d9 4a bb
       0.00013540276 -0.00530284 -0.0009145391 -0.0030952513
000250 b0 ad 87 b9 13 bf db bb c6 a9 54 bc e6 e3 ab bb
       -0.00025878614 -0.0067061274 -0.01297993 -0.0052456735
000260 38 ba 4c 3d 58 c1 01 ba 55 84 02 3b b3 f7 d8 b9
       0.04998228 -0.000494977 0.0019915302 -0.0004138328
000270 69 f9 a4 ba 95 14 ea ba 23 07 06 bb 9e ac da bb
       -0.0012586537 -0.0017858917 -0.002045103 -0.0066734096
000280 38 b9 a1 bb 55 c3 ba bb aa 58 a5 38 9d ee 95 3c
       -0.00493541 -0.005699555 7.884328e-05 0.018302256
000290 13 51 33 bc 8b 83 d6 ba 19 86 4a 3b d4 b6 6f ba
       -0.010944623 -0.0016366107 0.0030902682 -0.000914437
0002a0 c6 6b 1e bc 3a a8 0e bb fe 75 4c bb 9b 26 06 b9
       -0.00966925 -0.0021767751 -0.0031198259 -0.00012793617
0002b0 d4 c7 b0 bb 17 7d 8e b8 5a cc 95 3a 8c d2 14 bb
       -0.005394915 -6.7943874e-05 0.0011428699 -0.0022708504
0002c0 8d 93 29 bc 9d e7 2a 3c c7 04 0c bc 48 65 ae 3b
       -0.01035012 0.0104311975 -0.008546061 0.0053221323
0002d0 98 51 d7 bb 5a 22 0b bb bc 0d a4 bb 69 8c 72 3b
       -0.006571006 -0.0021230192 -0.00500652 0.003700996
0002e0 bd 5b 7a bb bd 17 35 bb 74 65 0d ba a0 e6 1b 3c
       -0.0038201653 -0.0027632557 -0.0005393841 0.0095154345
0002f0 f6 b6 36 39 19 2a 5c 3c 70 e1 5a 3c 88 06 48 bb
       0.00017425031 0.013437771 0.013359413 -0.003052147
000300 ba 9c 3b 3b 7a b4 f9 bb 7e 8d 31 39 4b b4 7c bb
       0.0028627352 -0.0076203914 0.00016932745 -0.0038559611
000310 3d aa 3e 3a 95 1c 46 ba 09 ae 3f 3a 91 15 07 bc
       0.0007273292 -0.00075573596 0.0007312005 -0.008244888
000320 f8 a3 08 bc 79 15 a9 b9 b0 9f 81 bb 06 69 b7 ba
       -0.008339874 -0.0003225019 -0.003955804 -0.0013993091
000330 d3 93 0d bc 9c d1 0f b9 21 ff 9c b9 11 72 12 bb
       -0.008641201 -0.00013715628 -0.00029944725 -0.002234582
000340 a9 ca ab 3c 7b 4a d7 bb b2 c0 84 3c 80 33 39 3b
       0.02097066 -0.006570158 0.016205166 0.0028259456
000350 2f 8e 08 bb 0a 8b 06 3c b1 ac 1e 3c 64 38 d6 b9
       -0.00208367 0.00821186 0.0096847275 -0.00040859275
000360 95 9e 2a ba 3f d2 92 ba 9e f9 c5 bb 7d 96 30 bb
       -0.0006508616 -0.0011201574 -0.0060417196 -0.0026945167
000370 ef be c9 3c 88 ee 38 3b ac 44 ba bb 7c b4 41 3a
       0.024627177 0.0028218348 -0.005684456 0.000738926
000380 dc f0 75 3a 1e e4 16 bb 66 cc 00 bc 77 e9 61 ba
       0.0009381899 -0.0023024152 -0.007861232 -0.0008617858
000390 62 6a e5 bb 72 03 a3 ba c2 f0 88 3c e3 91 37 3c
       -0.007001207 -0.001243694 0.016716365 0.011204216
0003a0 67 f8 c0 3b 6f d8 ee bb 20 75 9d bb d1 ae a9 bb
       0.005888987 -0.0072889845 -0.004805222 -0.0051783104
0003b0 a1 2d 62 bb 5e bf ca bb 59 81 ff 39 4a d3 3a bb
       -0.003451206 -0.0061873635 0.00048733762 -0.0028507286
0003c0 29 a8 46 bc e7 fc 1d bc db 1e 23 bb f7 cd c0 bb
       -0.012125053 -0.009642816 -0.0024890217 -0.005883928
0003d0 fe c2 13 3a 00 3a 2f bb 31 f5 42 bb 99 9f 2b bb
       0.0005636661 -0.0026737452 -0.0029748196 -0.0026187657
0003e0 d2 31 57 b9 49 75 25 bb
       -0.00020522557 -0.002524691
