android/src/main/python/window_encoder_GA.tflite (tflite, 89148 bytes, 12 tensors)

sent_attention/Variable_1 f4 [50]
0.099782445 -0.075672865 -0.13755119 -0.11619952 -0.11067739 0.19601768 -0.18903509 0.082551785
0.13182202 0.0974703 -0.09078871 -0.015357512 0.12940972 0.075225905 -0.09546061 -0.13458022
-0.15022956 0.12977053 0.11573218 -0.117431894 -0.08882743 0.14138408 0.12792566 -0.12056262
0.014091391 -0.0643985 0.12749055 0.15067872 0.0939757 0.09321908 -0.12613966 -0.020867355
-0.15782681 0.10358108 0.03489528 -0.04410845 0.036127515 -0.14306985 -0.010114694 -0.08664372
0.20099457 -0.110372715 -0.20142904 0.20210792 -0.11619835 -0.09614125 0.06522734 0.12364202
-0.18655619 -0.17488624
00000000: bd5a cc3d 60fa 9abd 38da 0cbe 04fa edbd
00000010: d4aa e2bd dcb8 483e 6a92 41be e910 a93d
00000020: 5afc 063e 829e c73d 6eef b9bd 139e 7bbc
00000030: fb83 043e 0a10 9a3d da80 c3bd 66cf 09be
00000040: c7d5 19be 91e2 043e fe04 ed3d 2280 f0bd
00000050: 28eb b5bd fdc6 103e f2fe 023e 89e9 f6bd
00000060: 94df 663c 5ce3 83bd e28c 023e 864b 1a3e
00000070: 5576 c03d a5e9 be3d c12a 01be 04f2 aabc
00000080: 5a9d 21be 5122 d43d 5aee 0e3d 10ab 34bd
00000090: 72fa 133d e780 12be 1ab8 25bc 4372 b1bd
000000a0: 85d1 4d3e 170b e2bd 6a43 4ebe 61f5 4e3e
000000b0: 67f9 edbd b4e5 c4bd e995 853d 0738 fd3d
000000c0: 9608 3fbe 6115 33be

dense_sent/bias f4 [10]
-0.12707517 0.14168495 -0.10329372 -0.130111 0.1580057 0.16402526 -0.11594831 0.13729662
0.13778178 0.14437193
00000000: fe1f 02be dc15 113e a88b d3bd d13b 05be
00000010: 3fcc 213e 3df6 273e 4f76 edbd 7c97 0c3e
00000020: ab16 0d3e 3cd6 133e

std.constant11 f4 [150]
-0.071722105 0.005999531 0.13636354 -0.23791991 -0.12234601 -0.007968639 0.10252201 0.13157475
-0.07478046 -0.0076432684 0.014050946 0.039865933 0.047905028 -0.004598872 -0.039485607 -0.048005026
0.012519592 -0.046826802 -0.040345583 -0.12769894 -0.057679296 -0.02976011 -0.041213546 0.12561451
0.07455775 0.06659812 -0.096608035 -0.021455029 0.078902766 0.070922926 0.057811946 0.082300335
0.08667138 0.0011842797 -0.07904172 -0.015485709 -0.021139193 0.08905159 0.0005947096 0.06564053
0.006980539 -0.06433816 -0.055786178 0.034959547 -0.120827325 0.032676227 -0.14897992 -0.054727092
-0.032543942 0.087270245 -0.04058201 0.020325182 -0.027903803 -0.009940151 0.026783124 -0.025760911
-0.038654327 -0.009643278 -0.035497002 -0.05347775 0.11486482 -0.0055498974 -0.029221682 -0.06385269
0.006609972 0.070248894 0.024132894 -0.013134128 -0.001056459 0.052363906 0.037097383 0.0038873963
0.0007573202 -0.03939419 -0.012429149 -0.05083842 -0.049412668 -0.03468488 0.06970709 -0.01182524
0.06575744 0.07918019 0.14956619 0.034282085 0.0051045534 0.020594759 -0.033129636 -0.122045934
0.054348834 0.061700225 0.042117275 -0.010076727 0.081982255 0.008792363 -0.0016620369 -0.04791915
0.025718918 0.011287643 0.0017478075 -0.007033677 -0.048211157 0.034783304 0.08927035 0.111604884
0.09720138 0.060578298 -0.039632466 0.03307065 0.13777217 0.09689685 0.043768853 -0.12365044
0.0242027 0.042651366 -0.020023387 -0.052807845 0.15540197 -0.0040969015 0.030584548 0.11835558
0.09266928 -0.0009353669 -0.124707155 0.08123651 0.13511248 0.07566626 -0.07802367 0.008938871
0.07067168 0.032938037 -0.084944904 -0.086158305 -0.06374155 0.08861951 -0.04779355 0.009974202
0.09383883 -0.069043145 0.061160147 0.0003908412 0.12534925 0.11506773 0.0076143635 0.0415339
-0.10032343 0.04004613 -0.023149606 0.008256376 0.024412628 0.026183084
00000000: 0ae3 92bd b797 c43b e2a2 0b3e 47a1 73be
00000010: 8b90 fabd e58e 02bc 0ff7 d13d 88bb 063e
00000020: 7f26 99bd 6274 fabb f035 663c 764a 233d
00000030: 1038 443d 22b2 96bb a9bb 21bd eba0 44bd
00000040: fa1e 4d3c 76cd 3fbd 6941 25bd 83c3 02be
00000050: 2041 6cbd 79cb f3bc 89cf 28bd 17a1 003e
00000060: bcb1 983d 9864 883d 6fda c5bd 75c2 afbc
00000070: c697 a13d 0a40 913d 38cc 6c3d 148d a83d
00000080: c480 b13d d539 9b3a a0e0 a1bd c5b7 7dbc
00000090: 1a2c adbc ae60 b63d 49e6 1b3a 8b6e 863d
000000a0: 01bd e43b bac3 83bd 0c80 64bd be31 0f3d
000000b0: 5174 f7bd 82d7 053d 318e 18be 8429 60bd
000000c0: cc4c 05bd beba b23d 5239 26bd ff80 a63c
000000d0: 8496 e4bc 04dc 22bc 4868 db3c 8c08 d3bc
000000e0: 0054 1ebd d7fe 1dbc 4e65 11bd 7c0b 5bbd
000000f0: 3f3e eb3d eadb b5bb 4f62 efbc 33c5 82bd
00000100: 7798 d83b a7de 8f3d 59b2 c53c 8730 57bc
00000110: e278 8aba 897b 563d 6df3 173d b0c3 7e3b
00000120: e686 463a cd5b 21bd a1a3 4bbc f23b 50bd
00000130: f064 4abd bc11 0ebd 97c2 8e3d a7be 41bc
00000140: d6ab 863d 3929 a23d e127 193e 5f6b 0c3d
00000150: 1944 a73b 57b6 a83c f1b2 07bd 38f3 f9bd
00000160: e29c 5e3d 60b9 7c3d 2a83 2c3d db18 25bc
00000170: 50e6 a73d d80d 103c b4d8 d9ba df46 44bd
00000180: 7bb0 d23c ceef 383c b016 e53a c27a e6bb
00000190: 1079 45bd f078 0e3d 60d3 b63d 1a91 e43d
000001a0: 8411 c73d f320 783d a755 22bd 1775 073d
000001b0: 2614 0d3e db71 c63d f846 333d 713c fdbd
000001c0: be44 c63c 33b3 2e3d 1608 a4bc 0a4d 58bd
000001d0: b221 1f3e 4d3f 86bb 728c fa3c 6964 f23d
000001e0: 64c9 bd3d 6933 75ba 7766 ffbd 545f a63d
000001f0: ed5a 0a3e eaf6 9a3d e0ca 9fbd 5874 123c
00000200: 50bc 903d 09ea 063d 98f7 adbd c473 b0bd
00000210: ee8a 82bd 257e b53d 2bc3 43bd d66a 233c
00000220: 932e c03d 7e66 8dbd 1083 7a3d d1e9 cc39
00000230: 8e5b 003e a1a8 eb3d e981 f93b 731f 2a3d
00000240: 5f76 cdbd 6907 243d 3ea4 bdbc c045 073c
00000250: fefc c73c e87d d63c

std.constant12 f4 [150]
-0.071722105 0.005999531 0.13636354 -0.23791991 -0.12234601 -0.007968639 0.10252201 0.13157475
-0.07478046 -0.0076432684 0.014050946 0.039865933 0.047905028 -0.004598872 -0.039485607 -0.048005026
0.012519592 -0.046826802 -0.040345583 -0.12769894 -0.057679296 -0.02976011 -0.041213546 0.12561451
0.07455775 0.06659812 -0.096608035 -0.021455029 0.078902766 0.070922926 0.057811946 0.082300335
0.08667138 0.0011842797 -0.07904172 -0.015485709 -0.021139193 0.08905159 0.0005947096 0.06564053
0.006980539 -0.06433816 -0.055786178 0.034959547 -0.120827325 0.032676227 -0.14897992 -0.054727092
-0.032543942 0.087270245 -0.04058201 0.020325182 -0.027903803 -0.009940151 0.026783124 -0.025760911
-0.038654327 -0.009643278 -0.035497002 -0.05347775 0.11486482 -0.0055498974 -0.029221682 -0.06385269
0.006609972 0.070248894 0.024132894 -0.013134128 -0.001056459 0.052363906 0.037097383 0.0038873963
0.0007573202 -0.03939419 -0.012429149 -0.05083842 -0.049412668 -0.03468488 0.06970709 -0.01182524
0.06575744 0.07918019 0.14956619 0.034282085 0.0051045534 0.020594759 -0.033129636 -0.122045934
0.054348834 0.061700225 0.042117275 -0.010076727 0.081982255 0.008792363 -0.0016620369 -0.04791915
0.025718918 0.011287643 0.0017478075 -0.007033677 -0.20009618 0.005745149 0.016852671 -0.00428902
0.18653277 0.07856881 -0.070383966 0.035975356 0.093058966 0.10309306 0.03901052 -0.13775477
-0.06870393 -0.004642003 -0.66346085 -0.026637787 0.14502439 0.14405435 0.32065564 0.55132896
0.10230809 0.014440071 -0.13495208 0.04303229 0.0417786 0.21674772 -0.06977012 -0.068829246
0.07267535 0.52233225 -0.08548513 -0.07924465 -0.064567015 0.0473486 0.025590409 0.013429623
0.016130501 -0.20418632 0.07020259 0.00019650567 0.12749887 0.2793057 1.123872 0.14104877
-0.12805153 0.03043434 0.08980765 0.21646062 0.22200835 -0.38603094
00000000: 0ae3 92bd b797 c43b e2a2 0b3e 47a1 73be
00000010: 8b90 fabd e58e 02bc 0ff7 d13d 88bb 063e
00000020: 7f26 99bd 6274 fabb f035 663c 764a 233d
00000030: 1038 443d 22b2 96bb a9bb 21bd eba0 44bd
00000040: fa1e 4d3c 76cd 3fbd 6941 25bd 83c3 02be
00000050: 2041 6cbd 79cb f3bc 89cf 28bd 17a1 003e
00000060: bcb1 983d 9864 883d 6fda c5bd 75c2 afbc
00000070: c697 a13d 0a40 913d 38cc 6c3d 148d a83d
00000080: c480 b13d d539 9b3a a0e0 a1bd c5b7 7dbc
00000090: 1a2c adbc ae60 b63d 49e6 1b3a 8b6e 863d
000000a0: 01bd e43b bac3 83bd 0c80 64bd be31 0f3d
000000b0: 5174 f7bd 82d7 053d 318e 18be 8429 60bd
000000c0: cc4c 05bd beba b23d 5239 26bd ff80 a63c
000000d0: 8496 e4bc 04dc 22bc 4868 db3c 8c08 d3bc
000000e0: 0054 1ebd d7fe 1dbc 4e65 11bd 7c0b 5bbd
000000f0: 3f3e eb3d eadb b5bb 4f62 efbc 33c5 82bd
00000100: 7798 d83b a7de 8f3d 59b2 c53c 8730 57bc
00000110: e278 8aba 897b 563d 6df3 173d b0c3 7e3b
00000120: e686 463a cd5b 21bd a1a3 4bbc f23b 50bd
00000130: f064 4abd bc11 0ebd 97c2 8e3d a7be 41bc
00000140: d6ab 863d 3929 a23d e127 193e 5f6b 0c3d
00000150: 1944 a73b 57b6 a83c f1b2 07bd 38f3 f9bd
00000160: e29c 5e3d 60b9 7c3d 2a83 2c3d db18 25bc
00000170: 50e6 a73d d80d 103c b4d8 d9ba df46 44bd
00000180: 7bb0 d23c ceef 383c b016 e53a c27a e6bb
00000190: 03e6 4cbe ce41 bc3b 9d0e 8a3c e88a 8cbb
000001a0: 7202 3f3e afe8 a03d 7825 90bd e55a 133d
000001b0: b395 be3d 7422 d33d 7fc9 1f3d 960f 0dbe
000001c0: a5b4 8cbd f21b 98bb 92d8 29bf 7d37 dabc
000001d0: 4681 143e fc82 133e fa2c a43e e523 0d3f
000001e0: e786 d13d 0c96 6c3c e130 0abe a042 303d
000001f0: 0a20 2b3d 1df3 5d3e a3e3 8ebd 59f6 8cbd
00000200: d0d6 943d 91b7 053f d412 afbd 054b a2bd
00000210: b63b 84bd 9bf0 413d faa2 d13c ec07 5c3c
00000220: 1d24 843c 3816 51be 60c6 8f3d 170d 4e39
00000230: 108f 023e 2801 8f3e 0adb 8f3f 176f 103e
00000240: f11f 03be 7051 f93c 13ed b73d daa7 5d3e
00000250: 2856 633e d9a5 c5be

std.constant13 f4 [50, 50]
-0.12156664 -0.017679006 0.0182546 0.06682624 -0.1014743 -0.0022439677 0.1131263 -0.0019914538
-0.03082996 0.091635175 -0.4089433 0.21791266 0.06260959 0.018184055 0.033152275 -0.036905922
0.18447246 0.086091384 0.17836168 -0.06343063 0.15693416 -0.009237446 0.087042496 0.12325819
3.826688e-06 0.035350747 0.033184364 -0.01797431 0.076782815 -0.2782326 -0.008413131 0.43287802
0.081197456 0.1431193 0.14463435 -0.025823524 0.05439264 0.06049965 0.00078484695 0.11847317
0.02168678 0.025848154 0.253553 0.1473532 -0.1294879 -0.03442525 -0.039828748 0.15595616
0.15659234 0.0036714755 0.059246715 -0.07615165 -0.07622304 -0.02975763 0.10887476 0.04668129
-0.11253812 -0.0038761375 0.049397998 -0.030860608 0.34183866 -0.39427936 -0.08643477 -0.112099014
-0.057786725 0.070663944 -0.096699305 -0.11957097 -0.026651883 0.084803335 -0.10671086 0.0011586924
-0.113238476 -0.1114491 0.019409478 0.028189749 0.08127226 -0.05777782 -0.101375006 0.13626719
0.04422749 -0.5266039 -0.118240565 -0.104476705 -0.05976404 0.042466667 -0.062454537 0.10442013
0.044504035 -0.17942072 -0.07818377 -0.10359327 -0.04309343 -0.096324734 0.07713187 -0.036911555
0.05243907 -0.07605322 -0.19395392 -0.16097009 0.081373535 0.0020604394 -0.14089042 -0.023728792
0.15767914 0.055258755 -0.14260724 0.31596097 0.074803606 -0.060198653 0.28906146 -0.08209758
-0.10614672 -0.054813925 0.0114522455 0.1573121 -0.1024821 -0.1325502 -0.009229631 0.10530238
-0.17835578 0.1645934 -0.08383661 -0.08334351 -0.033380564 -0.043230895 -0.02429648 0.16003981
-0.078791365 0.08818286 -0.005731838 -0.45727044 -0.2614011 -0.009506554 -0.16016525 0.039658625
-0.1479897 0.12172588 -0.023648709 -0.3106054 -0.15594298 -0.10740018 -0.19437438 -0.11036565
0.1759735 -0.06560044 0.0395508 -0.10036347 -0.1696816 0.19760893 0.113129586 -0.14532305
-0.07546707 -0.107426554 -0.19528863 -0.14793721 0.099677354 -0.12907664 -0.139426 -0.144999
-0.04595359 0.20000847 -0.19587594 -0.1679267 0.038766894 0.09928412 -0.08862137 0.13187005
-0.096004926 0.040570647 -0.031981092 -0.09629349 -0.0055218106 -0.07672242 -0.10814348 -0.052003156
0.08677762 0.24211067 -0.17946593 -0.49235526 0.13481452 0.1651589 0.053182263 -0.05668594
-0.012664076 -0.09748686 -0.10898896 0.15011634 -0.14141394 -0.30486733 -0.10910764 -0.12774174
-0.06742276 -0.041436214 -0.09576166 0.086846866 0.11104147 -0.02539568 -0.03946192 0.009537142
0.1060008 -0.18520413 -0.0062942063 0.038159482 -0.109031826 -0.15454426 0.019416034 0.09223665
-0.10188905 -0.18367717 -0.14118809 0.17101234 -0.19691992 -0.22755253 0.21487364 0.14282115
-0.12440567 0.00091436045 -0.051857248 0.05367663 -0.11600355 -0.16024907 0.15302265 -0.16029838
-0.14545234 -0.09018415 -0.042941295 0.08322137 -0.16469072 -0.008401292 0.079991534 0.18721987
0.17147271 -0.18318895 0.017187018 -0.15847297 -0.092250235 0.22377288 -0.09320893 0.04105722
-0.12071782 -0.10203396 -0.07739395 -0.16785282 -0.052520525 0.13737202 0.1864767 -0.13533288
-0.18681455 -0.12645055 -0.012579931 0.10426546 0.17175807 0.058995213 -0.088196024 -0.064162955
00000000: eef7 f8bd 90d3 90bc ac8a 953c 32dc 883d
00000010: c2d1 cfbd 880f 13bb c3ae e73d 0d83 02bb
00000020: 1d8f fcbc 39ab bb3d 0461 d1be 7f24 5f3e
00000030: 7539 803d baf6 943c aeca 073d aa2a 17bd
00000040: 59e6 3c3e ae50 b03d 72a4 363e ebe7 81bd
00000050: 59b3 203e a858 17bc 5643 b23d ca6e fc3d
00000060: 0067 8036 f2cb 103d 54ec 073d dc3e 93bc
00000070: 4f40 9d3d 8174 8ebe 3bd7 09bc 30a2 dd3e
00000080: da4a a63d de8d 123e 071b 143e db8b d3bc
00000090: d1ca 5e3d 7bce 773d 30be 4d3a 10a2 f23d
000000a0: 79a8 b13c 82bf d33c b3d1 813e c2e3 163e
000000b0: 7a98 04be 7e01 0dbd 7823 23bd f9b2 1f3e
000000c0: be59 203e 239d 703b afac 723d 65f5 9bbd
000000d0: d31a 9cbd 46c6 f3bc bbf9 de3d e134 3f3d
000000e0: 637a e6bd cc06 7ebb 8e55 4a3d 63cf fcbc
000000f0: 7a05 af3e fcde c9be b604 b1bd 2b94 e5bd
00000100: c6b1 6cbd 42b8 903d 490a c6bd a0e1 f4bd
00000110: 0d55 dabc 5fad ad3d 398b dabd 44df 973a
00000120: 93e9 e7bd 6d3f e4bd a000 9f3c 30ee e63c
00000130: 1272 a63d 6fa8 6cbd b39d cfbd a089 0b3e
00000140: e227 353d 83cf 06bf 1c28 f2bd e2f7 d5bd
00000150: 23cb 74bd 87f1 2d3d 54d0 7fbd 39da d53d
00000160: dd49 363d 11ba 37be d01e a0bd b528 d4bd
00000170: bd82 30bd e745 c5bd 50f7 9d3d 9230 17bd
00000180: 5aca 563d cac1 9bbd db9b 46be 58d5 24be
00000190: 2ba7 a63d 7008 073b 9445 10be e262 c2bc
000001a0: a476 213e 0157 623d a207 12be a3c5 a13e
000001b0: a232 993d dd92 76bd ddff 933e c722 a8bd
000001c0: 7463 d9bd 9184 60bd 33a2 3b3c 6c16 213e
000001d0: 23e2 d1bd 3dbb 07be e137 17bc c6a8 d73d
000001e0: e6a2 36be 2c8b 283e 87b2 abbd 01b0 aabd
000001f0: 0fba 08bd e112 31bd 6909 c7bc 7ae1 233e
00000200: 5e5d a1bd 3799 b43d 24d2 bbbb 5a1f eabe
00000210: 5dd6 85be 61c1 1bbc 5c02 24be 1571 223d
00000220: 9d8a 17be 6b4b f93d f0ba c1bc ac07 9fbe
00000230: 84af 1fbe a0f4 dbbd 140a 47be 6307 e2bd
00000240: 6632 343e 8659 86bd 0500 223d 5d8b cdbd
00000250: 03c1 2dbe ff59 4a3e 7cb0 e73d 91cf 14be
00000260: 7b8e 9abd 7402 dcbd bef9 47be da7c 17be
00000270: a423 cc3d ab2c 04be b0c5 0ebe 9e7a 14be
00000280: d539 3cbd 05cf 4c3e b493 48be faf4 2bbe
00000290: 09ca 1e3d 7955 cb3d 1f7f b5bd f108 073e
000002a0: 3b9e c4bd 682d 263d 9bfe 02bd 8535 c5bd
000002b0: 4ef0 b4bb a520 9dbd 547a ddbd 4301 55bd
000002c0: 77b8 b13d dceb 773e ebc5 37be fd15 fcbe
000002d0: d10c 0a3e 6a1f 293e a5d5 593d 842f 68bd
000002e0: fc7c 4fbc 31a7 c7bd 9b35 dfbd 19b8 193e
000002f0: d1ce 10be 9217 9cbe d473 dfbd bbce 02be
00000300: f214 8abd 05b9 29bd b01e c4bd c5dc b13d
00000310: b669 e33d 9a0a d0bc d2a2 21bd ac41 1c3c
00000320: f316 d93d 27a6 3dbe a13f cebb 1e4d 1c3d
00000330: 144c dfbd da40 1ebe 600e 9f3c 92e6 bc3d
00000340: 35ab d0bd de15 3cbe 9c93 10be dc1d 2f3e
00000350: 60a5 49be 8803 69be d607 5c3e b53f 123e
00000360: 66c8 febd b1b1 6f3a 4468 54bd 07dc 5b3d
00000370: 4593 edbd 5518 24be f8b1 1c3e 4225 24be
00000380: 75f1 14be 78b2 b8bd 36e3 2fbd f76f aa3d
00000390: afa4 28be 93a5 09bc 9ad2 a33d 91b6 3f3e
000003a0: 8b96 2f3e e295 3bbe cacb 8c3c bd46 22be
000003b0: b1ed bcbd b824 653e 53e4 bebd 9e2b 283d
000003c0: e83a f7bd 2ef7 d0bd b880 9ebd 9ce1 2bbe
000003d0: c31f 57bd 40ab 0c3e bff3 3e3e b494 0abe
000003e0: 504c 3fbe 417c 01be 0e1c 4ebc 2189 d53d
000003f0: 59e1 2f3e f7a4 713d 1ea0 b4bd de67 83bd

std.constant14 f4 [1, 50]
-0.14385356 0.15444933 0.22809912 -0.061993957 -0.050467372 -0.22456372 0.25567484 -0.11130744
-0.17126924 -0.19623396 0.30296618 0.12696658 -0.25241515 -0.24220064 -0.06534204 0.15270275
0.05746211 -0.29046312 -0.15500101 0.21908757 0.20014092 -0.13201721 -0.17848113 0.12661071
-0.085802525 -0.06970869 -0.0192361 -0.32569668 0.053464256 -0.03571399 0.29598868 0.1640117
0.15699102 -0.24512944 -0.13314044 0.23082063 -0.27652273 0.20001361 0.071869336 -0.065504245
-0.19491756 0.25176188 -0.046700165 -0.25271884 -0.06290797 0.09332696 -0.14074385 -0.26851085
0.2432862 0.19736971
00000000: 594e 13be f727 1e3e d192 693e 60ed 7dbd
00000010: e0b6 4ebd 08f4 65be d0e7 823e 28f5 e3bd
00000020: 3461 2fbe 8ef1 48be 621e 9b3e 8703 023e
00000030: 8f3c 81be 7203 78be 0cd2 85bd 1c5e 1c3e
00000040: 645d 6b3d 95b7 94be 96b8 1ebe 7e58 603e
00000050: bef1 4c3e 852f 07be c2c3 36be 3da6 013e
00000060: 3cb9 afbd 6ec3 8ebd 0795 9dbc b7c1 a6be
00000070: 56fd 5a3d d548 12bd d48b 973e aff2 273e
00000080: 41c2 203e 3603 7bbe f855 08be 3e5c 6c3e
00000090: 6394 8dbe 5ed0 4c3e 3b30 933d 1727 86bd
000000a0: 7898 47be efe6 803e ac48 3fbd 5d64 81be
000000b0: e5d5 80bd 3522 bf3d 281f 10be 417a 89be
000000c0: 0520 793e 491b 4a3e

std.constant15 f4 [10, 50]
-0.13789017 -0.31352088 -0.27412245 -0.38330692 0.5193205 -0.4078787 -0.038662136 -0.31107765
-0.2137228 -0.33929583 -0.42420888 0.20994402 -0.33658484 0.16461079 0.23709668 0.3869534
-0.004913587 -0.17417398 -0.3485657 0.00552025 -0.022446282 -0.4161737 0.36201957 -0.039718572
-0.19212297 -0.019217769 0.011259928 -0.027213525 -0.079277694 -0.36847273 0.17991419 0.04545701
0.28281057 -0.21165848 0.21495777 -0.41807786 -0.17777738 0.31403714 -0.33398303 -0.13398355
-0.14693178 0.108212225 -0.41940933 -0.1760132 0.12918968 0.41590717 0.11682856 -0.45692647
-0.035384487 -0.20644923 -0.27143404 0.066195816 0.38878793 0.4427444 -0.40828922 0.15982033
-0.20659375 0.49595574 0.3663539 0.17677437 -0.017798727 -0.4008294 0.22540826 0.17788734
-0.30344838 0.021679608 0.19295838 0.2068284 0.36943102 0.018213766 0.121164985 0.38289094
-0.24154839 0.014654406 0.31274906 0.41456807 0.04042603 -0.3867886 0.03323823 0.033645377
-0.24540548 -0.26615053 0.15374385 0.462529 -0.16881905 0.34411162 0.090919405 0.0019169244
0.34974375 -0.20260796 0.048300616 0.15797487 -0.10400782 0.2023757 -0.22382988 -0.25001162
-0.27885115 0.08047276 0.14571388 0.15388554 0.30920312 0.06245835 0.16357212 -0.26566967
0.119311064 0.08606296 -0.008008425 -0.33126137 0.052891713 0.008530275 -0.1223456 -0.17009464
-0.42162418 0.008393686 0.38211027 0.07915759 -0.04727786 -0.22490892 -0.16128474 -0.44654056
0.08803335 -0.3185445 0.15191157 -0.42854133 -0.16718076 -0.17624007 -0.0532332 0.124914445
-0.2031238 -0.1551866 -0.0552501 0.332429 -0.02297193 -0.2794163 0.18628877 -0.32846114
0.048417572 0.2665179 -0.2280385 -0.2594097 -0.2462909 -0.07021463 -0.14648296 -0.071459234
-0.06536491 0.34065694 -0.071983635 -0.038202487 0.024711207 0.1978508 0.3765541 -0.26594517
-0.3236901 0.051462214 0.07661781 -0.31824327 0.0048326617 -0.060032792 -0.3825838 -0.358333
-0.35357624 0.3065198 -0.14474207 0.0261002 -0.14633898 0.009914726 -0.0150094135 -0.58490396
-0.4462486 -0.22493194 -0.13084279 -0.24644746 -0.008987578 -0.3281645 0.022687346 -0.4489445
0.081941 0.15509671 0.10503355 -0.4064195 0.06589293 0.10347269 -0.12340904 -0.05319476
0.25368178 -0.4307654 -0.05104267 0.035595264 -0.36917478 -0.088260114 -0.0039119083 -0.18535732
-0.14064385 -0.1414877 0.14450838 0.27958715 0.35508204 -0.24264726 -0.44168836 -0.22297682
-0.09831627 0.10666739 0.2539906 0.5224504 -0.5855103 0.101349086 -0.11639071 0.6780779
0.4030019 -0.08601258 0.19842611 -0.16797951 0.053959716 -0.1135314 -0.19138679 0.09575619
-0.018049994 0.49782375 0.37729907 0.44605827 0.30105123 0.28213727 -0.04056537 -0.13314077
-0.15410471 0.35258886 -0.44953528 0.073859766 -0.14176461 0.3584557 -0.15676554 -0.17401856
-0.36337593 0.43275893 -0.16920173 0.45550784 -0.09771682 -0.13671541 0.3720695 -0.25360245
-0.032194957 0.08745799 0.4143057 0.3549105 -0.050929934 0.03150073 -0.24751423 0.16851749
0.06303794 0.42431363 -0.3099493 0.45507532 0.1299427 0.42904085 -0.1704009 -0.04268661
00000000: 1533 0dbe cf85 a0be c759 8cbe ce40 c4be
00000010: 30f2 043f 7ad5 d0be 305c 1ebd 9245 9fbe
00000020: 26da 5abe 2fb8 adbe e831 d9be 91fb 563e
00000030: d954 acbe bb8f 283e 79c9 723e c21e c63e
00000040: 2802 a1bb aa5a 32be 3477 b2be 37e3 b43b
00000050: 44e1 b7bc b814 d5be a15a b93e f1af 22bd
00000060: e2bb 44be 956e 9dbc 907b 383c e6ee debc
00000070: 585c a2bd 75a8 bcbe 6d3b 383e 2131 3a3d
00000080: 8ccc 903e 00bd 58be e41d 5c3e 4d0e d6be
00000090: 460b 36be 7ac9 a03e d3ff aabe fc32 09be
000000a0: 4975 16be 5f9e dd3d d2bc d6be ce3c 34be
000000b0: 4d4a 043e c9f1 d43e d043 ef3d 44f2 e9be
000000c0: 53ef 10bd 6d67 53be 67f9 8abe ac91 873d
000000d0: 360f c73e 65af e23e 490b d1be f1a7 233e
000000e0: 508d 53be e9ed fd3e bd92 bb3e 5704 353e
000000f0: a3ce 91bc 8339 cdbe 6cd1 663e 1928 363e
00000100: 965d 9bbe 6f99 b13c e296 453e d3ca 533e
00000110: 1026 bd3e 0935 953c 5925 f83d 480a c43e
00000120: 7658 77be 0919 703c a520 a03e 4442 d43e
00000130: c495 253d 2809 c6be cf24 083d bccf 093d
00000140: 934b 7bbe e244 88be 076f 1d3e 9ad0 ec3e
00000150: e7de 2cbe 662f b03e f433 ba3d 4f41 fb3a
00000160: 9d11 b33e 7678 4fbe ded6 453d 2ac4 213e
00000170: 0d02 d5bd 933b 4f3e a933 65be 8601 80be
00000180: 94c5 8ebe e7ce a43d 0536 153e 2c94 1d3e
00000190: df4f 9e3e 54d4 7f3d 737f 273e db05 88be
000001a0: 5c59 f43d c741 b03d c535 03bc 179b a9be
000001b0: fba4 583d 91c2 0b3c 5490 fabd 4a2d 2ebe
000001c0: 20df d7be ac85 093c f5a3 c33e 601d a23d
000001d0: 6ea6 41bd 864e 66be d427 25be f7a0 e4be
000001e0: d44a b43d 4418 a3be b58e 1b3e c569 dbbe
000001f0: 6f31 2bbe 4778 34be 0e0b 5abd 25d3 ff3d
00000200: afff 4fbe 3ce9 1ebe ee4d 62bd 2234 aa3e
00000210: a12f bcbc a70f 8fbe 7cc2 3e3e 0f2c a8be
00000220: 8151 463d 0975 883e ed82 69be 59d1 84be
00000230: af33 7cbe b0cc 8fbd a1ff 15be 3859 92bd
00000240: 0ade 85bd 966a ae3e 286c 93bd 367a 1cbd
00000250: 286f ca3c 6699 4a3e b3cb c03e f729 88be
00000260: b5ba a5be 0bca 523d cce9 9c3d c8f0 a2be
00000270: 4e5b 9e3b f2e4 75bd 06e2 c3be 6c77 b7be
00000280: f207 b5be 2af0 9c3e 4437 14be 16d0 d53c
00000290: e3d9 15be 6071 223c 0bea 75bc 44bc 15bf
000002a0: b27a e4be 8f54 66be a7fb 05be b95c 7cbe
000002b0: a240 13bc 2d05 a8be d0da b93c 0edc e5be
000002c0: afd0 a73d acd1 1e3e d41b d73d 3716 d0be
000002d0: dff2 863d 7de9 d33d e1bd fcbd c0e2 59bd
000002e0: 94e2 813e 488d dcbe 1e12 51bd 57cc 113d
000002f0: 7a04 bdbe b8c1 b4bd 772f 80bb 4fce 3dbe
00000300: f104 10be 27e2 10be 01fa 133e 0c26 8f3e
00000310: 50cd b53e 8678 78be fa24 e2be 0954 64be
00000320: 0a5a c9bd 6f74 da3d 0e0b 823e 4fbf 053f
00000330: 01e4 15bf 1c90 cf3d 415e eebd 8396 2d3f
00000340: 4456 ce3e 5d27 b0bd 3730 4b3e d202 2cbe
00000350: dd04 5d3d 2783 e8bd e6fa 43be d21b c43d
00000360: 95dd 93bc c1e2 fe3e 582d c13e c061 e43e
00000370: 6323 9a3e 4c74 903e e027 26bd 0e56 08be
00000380: a0cd 1dbe 8786 b43e 7d29 e6be ca43 973d
00000390: be2a 11be 8187 b73e 2587 20be ec31 32be
000003a0: 690c babe 9492 dd3e 3843 2dbe 5338 e93e
000003b0: c21f c8bd 20ff 0bbe e57f be3e 2ed8 81be
000003c0: dcde 03bd 2d1d b33d e01f d43e d4b6 b53e
000003d0: e89b 50bd e906 013d 5f74 7dbe d98f 2c3e
000003e0: 091a 813d a33f d93e adb1 9ebe a2ff e83e
000003f0: b30f 053e 3eab db3e 937d 2ebe 28d8 2ebd

std.constant16 f4 [1, 10]
-0.7582969 0.553351 -0.63389856 -0.73144644 0.33899647 0.64958924 -0.8215136 0.80889803
0.73740476 0.4452012
00000000: bf1f 42bf 69a8 0d3f 2d47 22bf 1340 3bbf
00000010: f290 ad3e 7b4b 263f b74e 52bf f113 4f3f
00000020: 8fc6 3c3f 69f1 e33e

std.constant23 f4 [150]
-0.071722105 0.005999531 0.13636354 -0.23791991 -0.12234601 -0.007968639 0.10252201 0.13157475
-0.07478046 -0.0076432684 0.014050946 0.039865933 0.047905028 -0.004598872 -0.039485607 -0.048005026
0.012519592 -0.046826802 -0.040345583 -0.12769894 -0.057679296 -0.02976011 -0.041213546 0.12561451
0.07455775 0.06659812 -0.096608035 -0.021455029 0.078902766 0.070922926 0.057811946 0.082300335
0.08667138 0.0011842797 -0.07904172 -0.015485709 -0.021139193 0.08905159 0.0005947096 0.06564053
0.006980539 -0.06433816 -0.055786178 0.034959547 -0.120827325 0.032676227 -0.14897992 -0.054727092
-0.032543942 0.087270245 -0.04058201 0.020325182 -0.027903803 -0.009940151 0.026783124 -0.025760911
-0.038654327 -0.009643278 -0.035497002 -0.05347775 0.11486482 -0.0055498974 -0.029221682 -0.06385269
0.006609972 0.070248894 0.024132894 -0.013134128 -0.001056459 0.052363906 0.037097383 0.0038873963
0.0007573202 -0.03939419 -0.012429149 -0.05083842 -0.049412668 -0.03468488 0.06970709 -0.01182524
0.06575744 0.07918019 0.14956619 0.034282085 0.0051045534 0.020594759 -0.033129636 -0.122045934
0.054348834 0.061700225 0.042117275 -0.010076727 0.081982255 0.008792363 -0.0016620369 -0.04791915
0.025718918 0.011287643 0.0017478075 -0.007033677 -0.048211157 0.034783304 0.08927035 0.111604884
0.09720138 0.060578298 -0.039632466 0.03307065 0.13777217 0.09689685 0.043768853 -0.12365044
0.0242027 0.042651366 -0.020023387 -0.052807845 0.15540197 -0.0040969015 0.030584548 0.11835558
0.09266928 -0.0009353669 -0.124707155 0.08123651 0.13511248 0.07566626 -0.07802367 0.008938871
0.07067168 0.032938037 -0.084944904 -0.086158305 -0.06374155 0.08861951 -0.04779355 0.009974202
0.09383883 -0.069043145 0.061160147 0.0003908412 0.12534925 0.11506773 0.0076143635 0.0415339
-0.10032343 0.04004613 -0.023149606 0.008256376 0.024412628 0.026183084
00000000: 0ae3 92bd b797 c43b e2a2 0b3e 47a1 73be
00000010: 8b90 fabd e58e 02bc 0ff7 d13d 88bb 063e
00000020: 7f26 99bd 6274 fabb f035 663c 764a 233d
00000030: 1038 443d 22b2 96bb a9bb 21bd eba0 44bd
00000040: fa1e 4d3c 76cd 3fbd 6941 25bd 83c3 02be
00000050: 2041 6cbd 79cb f3bc 89cf 28bd 17a1 003e
00000060: bcb1 983d 9864 883d 6fda c5bd 75c2 afbc
00000070: c697 a13d 0a40 913d 38cc 6c3d 148d a83d
00000080: c480 b13d d539 9b3a a0e0 a1bd c5b7 7dbc
00000090: 1a2c adbc ae60 b63d 49e6 1b3a 8b6e 863d
000000a0: 01bd e43b bac3 83bd 0c80 64bd be31 0f3d
000000b0: 5174 f7bd 82d7 053d 318e 18be 8429 60bd
000000c0: cc4c 05bd beba b23d 5239 26bd ff80 a63c
000000d0: 8496 e4bc 04dc 22bc 4868 db3c 8c08 d3bc
000000e0: 0054 1ebd d7fe 1dbc 4e65 11bd 7c0b 5bbd
000000f0: 3f3e eb3d eadb b5bb 4f62 efbc 33c5 82bd
00000100: 7798 d83b a7de 8f3d 59b2 c53c 8730 57bc
00000110: e278 8aba 897b 563d 6df3 173d b0c3 7e3b
00000120: e686 463a cd5b 21bd a1a3 4bbc f23b 50bd
00000130: f064 4abd bc11 0ebd 97c2 8e3d a7be 41bc
00000140: d6ab 863d 3929 a23d e127 193e 5f6b 0c3d
00000150: 1944 a73b 57b6 a83c f1b2 07bd 38f3 f9bd
00000160: e29c 5e3d 60b9 7c3d 2a83 2c3d db18 25bc
00000170: 50e6 a73d d80d 103c b4d8 d9ba df46 44bd
00000180: 7bb0 d23c ceef 383c b016 e53a c27a e6bb
00000190: 1079 45bd f078 0e3d 60d3 b63d 1a91 e43d
000001a0: 8411 c73d f320 783d a755 22bd 1775 073d
000001b0: 2614 0d3e db71 c63d f846 333d 713c fdbd
000001c0: be44 c63c 33b3 2e3d 1608 a4bc 0a4d 58bd
000001d0: b221 1f3e 4d3f 86bb 728c fa3c 6964 f23d
000001e0: 64c9 bd3d 6933 75ba 7766 ffbd 545f a63d
000001f0: ed5a 0a3e eaf6 9a3d e0ca 9fbd 5874 123c
00000200: 50bc 903d 09ea 063d 98f7 adbd c473 b0bd
00000210: ee8a 82bd 257e b53d 2bc3 43bd d66a 233c
00000220: 932e c03d 7e66 8dbd 1083 7a3d d1e9 cc39
00000230: 8e5b 003e a1a8 eb3d e981 f93b 731f 2a3d
00000240: 5f76 cdbd 6907 243d 3ea4 bdbc c045 073c
00000250: fefc c73c e87d d63c

std.constant24 f4 [150]
-0.071722105 0.005999531 0.13636354 -0.23791991 -0.12234601 -0.007968639 0.10252201 0.13157475
-0.07478046 -0.0076432684 0.014050946 0.039865933 0.047905028 -0.004598872 -0.039485607 -0.048005026
0.012519592 -0.046826802 -0.040345583 -0.12769894 -0.057679296 -0.02976011 -0.041213546 0.12561451
0.07455775 0.06659812 -0.096608035 -0.021455029 0.078902766 0.070922926 0.057811946 0.082300335
0.08667138 0.0011842797 -0.07904172 -0.015485709 -0.021139193 0.08905159 0.0005947096 0.06564053
0.006980539 -0.06433816 -0.055786178 0.034959547 -0.120827325 0.032676227 -0.14897992 -0.054727092
-0.032543942 0.087270245 -0.04058201 0.020325182 -0.027903803 -0.009940151 0.026783124 -0.025760911
-0.038654327 -0.009643278 -0.035497002 -0.05347775 0.11486482 -0.0055498974 -0.029221682 -0.06385269
0.006609972 0.070248894 0.024132894 -0.013134128 -0.001056459 0.052363906 0.037097383 0.0038873963
0.0007573202 -0.03939419 -0.012429149 -0.05083842 -0.049412668 -0.03468488 0.06970709 -0.01182524
0.06575744 0.07918019 0.14956619 0.034282085 0.0051045534 0.020594759 -0.033129636 -0.122045934
0.054348834 0.061700225 0.042117275 -0.010076727 0.081982255 0.008792363 -0.0016620369 -0.04791915
0.025718918 0.011287643 0.0017478075 -0.007033677 -0.20009618 0.005745149 0.016852671 -0.00428902
0.18653277 0.07856881 -0.070383966 0.035975356 0.093058966 0.10309306 0.03901052 -0.13775477
-0.06870393 -0.004642003 -0.66346085 -0.026637787 0.14502439 0.14405435 0.32065564 0.55132896
0.10230809 0.014440071 -0.13495208 0.04303229 0.0417786 0.21674772 -0.06977012 -0.068829246
0.07267535 0.52233225 -0.08548513 -0.07924465 -0.064567015 0.0473486 0.025590409 0.013429623
0.016130501 -0.20418632 0.07020259 0.00019650567 0.12749887 0.2793057 1.123872 0.14104877
-0.12805153 0.03043434 0.08980765 0.21646062 0.22200835 -0.38603094
00000000: 0ae3 92bd b797 c43b e2a2 0b3e 47a1 73be
00000010: 8b90 fabd e58e 02bc 0ff7 d13d 88bb 063e
00000020: 7f26 99bd 6274 fabb f035 663c 764a 233d
00000030: 1038 443d 22b2 96bb a9bb 21bd eba0 44bd
00000040: fa1e 4d3c 76cd 3fbd 6941 25bd 83c3 02be
00000050: 2041 6cbd 79cb f3bc 89cf 28bd 17a1 003e
00000060: bcb1 983d 9864 883d 6fda c5bd 75c2 afbc
00000070: c697 a13d 0a40 913d 38cc 6c3d 148d a83d
00000080: c480 b13d d539 9b3a a0e0 a1bd c5b7 7dbc
00000090: 1a2c adbc ae60 b63d 49e6 1b3a 8b6e 863d
000000a0: 01bd e43b bac3 83bd 0c80 64bd be31 0f3d
000000b0: 5174 f7bd 82d7 053d 318e 18be 8429 60bd
000000c0: cc4c 05bd beba b23d 5239 26bd ff80 a63c
000000d0: 8496 e4bc 04dc 22bc 4868 db3c 8c08 d3bc
000000e0: 0054 1ebd d7fe 1dbc 4e65 11bd 7c0b 5bbd
000000f0: 3f3e eb3d eadb b5bb 4f62 efbc 33c5 82bd
00000100: 7798 d83b a7de 8f3d 59b2 c53c 8730 57bc
00000110: e278 8aba 897b 563d 6df3 173d b0c3 7e3b
00000120: e686 463a cd5b 21bd a1a3 4bbc f23b 50bd
00000130: f064 4abd bc11 0ebd 97c2 8e3d a7be 41bc
00000140: d6ab 863d 3929 a23d e127 193e 5f6b 0c3d
00000150: 1944 a73b 57b6 a83c f1b2 07bd 38f3 f9bd
00000160: e29c 5e3d 60b9 7c3d 2a83 2c3d db18 25bc
00000170: 50e6 a73d d80d 103c b4d8 d9ba df46 44bd
00000180: 7bb0 d23c ceef 383c b016 e53a c27a e6bb
00000190: 03e6 4cbe ce41 bc3b 9d0e 8a3c e88a 8cbb
000001a0: 7202 3f3e afe8 a03d 7825 90bd e55a 133d
000001b0: b395 be3d 7422 d33d 7fc9 1f3d 960f 0dbe
000001c0: a5b4 8cbd f21b 98bb 92d8 29bf 7d37 dabc
000001d0: 4681 143e fc82 133e fa2c a43e e523 0d3f
000001e0: e786 d13d 0c96 6c3c e130 0abe a042 303d
000001f0: 0a20 2b3d 1df3 5d3e a3e3 8ebd 59f6 8cbd
00000200: d0d6 943d 91b7 053f d412 afbd 054b a2bd
00000210: b63b 84bd 9bf0 413d faa2 d13c ec07 5c3c
00000220: 1d24 843c 3816 51be 60c6 8f3d 170d 4e39
00000230: 108f 023e 2801 8f3e 0adb 8f3f 176f 103e
00000240: f11f 03be 7051 f93c 13ed b73d daa7 5d3e
00000250: 2856 633e d9a5 c5be

while/MatMul_1 f4 [150, 50]
-0.13917308 -0.023127088 -0.038762804 -0.05796832 -0.037568275 -0.093709186 0.1569582 -0.042574156
0.022437146 0.05790492 -0.0070787477 0.09836305 0.053381488 0.058643002 0.14845772 0.08467358
-0.09504951 -0.04006168 0.022532836 0.021607852 -0.051514503 -0.05532829 0.09860496 -0.15015098
0.016083742 0.078054376 -0.050639242 -0.039284837 0.0019755953 -0.11373475 -0.08519281 0.08672333
0.10817611 0.084300086 0.18234615 -0.11861443 -0.14107984 -0.064532205 0.04536389 -0.064810336
-0.069170676 0.0096450085 0.05084619 -0.029864212 0.12244532 0.07206587 0.047347117 0.0041822013
0.12778603 -0.020563148 0.030894488 0.028431764 -0.041036483 0.041115418 0.042267147 -0.020029733
0.048362944 0.19441637 -0.19981764 -0.13748628 -0.059103 0.1751534 -0.17602332 -0.041848153
0.13561407 0.041387286 0.05321158 0.08480014 -0.054433458 -0.6138953 0.03541137 -0.073044255
0.55693483 -0.16695037 0.101457186 -0.16582173 -0.0009794577 0.16111897 -0.03853396 -0.4903445
0.02906009 0.029684164 -0.007709402 -0.017069502 -0.07724219 -0.028794387 -0.06410681 0.101745635
-0.09875296 -0.07290191 -0.19634345 -0.079079844 -0.05602295 0.014611505 -0.021776764 0.12003694
-0.008969607 0.040932234 -0.23706529 -0.06678179 0.108454324 -0.07603418 0.0020694805 0.04473522
-0.11177644 -0.075799905 -0.050104238 -0.056273066 -0.0023023332 0.11695755 -0.06367332 0.052628614
0.073129095 -0.19654348 0.050402958 -0.08326191 -0.061265003 -0.006229323 0.039947037 -0.093452886
0.010775318 -0.042239513 0.21589132 -0.044835072 -0.042977158 -0.04048992 0.16353884 0.16773032
0.035091285 -0.10445698 0.23151574 0.035984837 0.16901907 -0.0080056675 0.008984371 -0.112427495
-0.11689901 0.08465464 0.17340057 -0.08170082 0.019071223 0.089222506 0.032315042 0.10649716
0.069347724 0.04927607 -0.037012655 0.03297123 -0.15709312 -0.21972787 0.07309399 -0.08918034
-0.014160246 -0.3435545 0.42682084 -0.06418051 -0.2376877 0.6586118 -0.0046297875 0.05689593
0.028112287 0.007976764 0.038132466 0.093326375 -0.06884359 0.02787885 0.13182265 0.095977925
-0.016764656 0.27683818 0.049876675 -0.044993803 -0.087143876 0.06417589 0.012275601 0.19443527
-0.15193982 -0.01662858 0.10234622 0.14365427 -0.013672103 0.023656717 -0.014811963 0.054913387
-0.33882684 -0.09551003 0.016350549 0.06970867 0.16250955 0.75623184 0.035276458 0.02958373
0.026805352 0.020808917 0.06076327 -0.068243206 0.09135635 -0.05502129 0.04112454 0.2285159
-0.051817376 -0.056005377 -0.09594986 0.1545203 -0.31739885 0.12429948 -0.23885347 -0.17075698
-0.11210758 0.016780376 0.10524942 -0.16415663 -6.483251e-05 0.052218083 0.047752663 -0.04645133
0.173954 0.3671062 -0.085239984 -0.0050325803 0.06320513 -0.11811351 0.09647598 0.0995777
0.091251396 0.045794234 0.0074972007 -0.024596222 -0.019874636 0.23563984 0.06875326 0.018978262
-0.09139453 -0.16207865 -0.035682168 -0.10475053 0.005581602 -0.09545637 0.10044703 0.81100273
0.030645562 0.018637722 0.15744868 -0.01349487 0.39973047 -0.03626553 -0.00461601 0.11803746
0.12811607 0.050535943 -0.007666172 -0.036737707 -0.060687095 0.0030639353 -0.14370316 0.3446262
00000000: 6383 0ebe 0575 bdbc bfc5 1ebd 3070 6dbd
00000010: 31e1 19bd 9aea bfbd a6b9 203e 3d62 2ebd
00000020: 1bce b73c b62d 6d3d d7f4 e7bb 9172 c93d
00000030: 8ca6 5a3d a533 703d 4d05 183e 5869 ad3d
00000040: 51a9 c2bd b717 24bd c896 b83c f302 b13c
00000050: df00 53bd eb9f 62bd 66f1 c93d 2ec1 19be
00000060: 0dc2 833c f9da 9f3d 186b 4fbd 23e9 20bd
00000070: fd78 013b c4ed e8bd 9179 aebd 009c b13d
00000080: 708b dd3d 86a5 ac3d f3b8 3a3e 1fec f2bd
00000090: 3c77 10be 7629 84bd 7ccf 393d 48bb 84bd
000000a0: 5ba9 8dbd 1906 1e3c 1844 503d cba5 f4bc
000000b0: 9dc4 fa3d 4597 933d 0def 413d d90a 893b
000000c0: 57da 023e 0c74 a8bc 7016 fd3c bbe9 e83c
000000d0: df15 28bd a468 283d 5120 2d3d 6515 a4bc
000000e0: 3918 463d 1615 473e ff9c 4cbe 34c9 0cbe
000000f0: fd15 72bd 6a5b 333e 753f 34be f868 2bbd
00000100: 6ade 0a3e b785 293d 63f4 593d b2ab ad3d
00000110: 9ef5 5ebd 3e28 1dbf 830b 113d 3a98 95bd
00000120: 4893 0e3f 0af5 2abe c9c8 cf3d 2ccd 29be
00000130: 2661 80ba 5ffc 243e c9d5 1dbd 6f0e fbbe
00000140: 6d0f ee3c 342c f33c 279f fcbb 57d5 8bbc
00000150: 2731 9ebd 35e2 ebbc 6e4a 83bd 0460 d03d
00000160: fe3e cabd 994d 95bd 420e 49be 9df4 a1bd
00000170: 5278 65bd 1865 6f3c 2f65 b2bc edd5 f53d
00000180: 42f5 12bc 8fa8 273d 3ec1 72be e4c4 88bd
00000190: 4d1d de3d cfb7 9bbd 1fa0 073b 473c 373d
000001a0: 0ceb e4bd fb3c 9bbd 1a3a 4dbd 967e 66bd
000001b0: bee2 16bb 7187 ef3d 2867 82bd 1a91 573d
000001c0: b5c4 953d b242 49be 5573 4e3d 3885 aabd
000001d0: 03f1 7abd 591f ccbb 819f 233d 3a64 bfbd
000001e0: f68a 303c 5703 2dbd 9d12 5d3e fba4 37bd
000001f0: d108 30bd c2d8 25bd ba76 273e 7fc1 2b3e
00000200: e1bb 0f3d 8bed d5bd 7612 6d3e d664 133d
00000210: 5613 2d3e 342a 03bc 2f33 133c 6340 e6bd
00000220: c068 efbd 695f ad3d eb8f 313e c252 a7bd
00000230: 413b 9c3c 4aba b63d c75c 043d 2f1b da3d
00000240: 2e06 8e3d b4d5 493d 959a 17bd d70c 073d
00000250: 05dd 20be 5800 61be 4db2 953d 2fa4 b6bd
00000260: 6000 68bc 60e6 afbe 4388 da3e 1271 83bd
00000270: 6864 73be c89a 283f 79b5 97bb b50b 693d
00000280: bd4b e63c f9b0 023c ca30 1c3d e621 bf3d
00000290: defd 8cbd 3062 e43c 84fc 063e 1390 c43d
000002a0: 0856 89bc bcbd 8d3e 7c4b 4c3d 6c4b 38bd
000002b0: 7d78 b2bd a66e 833d 9a1f 493c 0a1a 473e
000002c0: 1d96 1bbe a938 88bc e59a d13d 1b1a 133e
000002d0: f500 60bc bbcb c13c e0ad 72bc dcec 603d
000002e0: b67a adbe c39a c3bd 96f1 853c 6bc3 8e3d
000002f0: e768 263e 6998 413f 0c7e 103d 9459 f23c
00000300: e696 db3c 7677 aa3c e8e2 783d 18c3 8bbd
00000310: 0a19 bb3d 015e 61bd 3572 283d 1200 6a3e
00000320: 753e 54bd e565 65bd 5c81 c4bd 923a 1e3e
00000330: 1a82 a2be ba90 fe3d 0196 74be ebda 2ebe
00000340: a998 e5bd 0077 893c 028d d73d ad18 28be
00000350: b0f6 87b8 a1e2 553d 4c98 433d c043 3ebd
00000360: ff20 323e 58f5 bb3e 4d92 aebd 58e8 a4bb
00000370: b171 813d 7fe5 f1bd 3395 c53d 65ef cb3d
00000380: 03e2 ba3d bc92 3b3d 14ab f53b 047e c9bc
00000390: 22d0 a2bc 924b 713e 82ce 8c3d 4d78 9b3c
000003a0: 0e2d bbbd f2f7 25be 7727 12bd 7287 d6bd
000003b0: dfe5 b63b a17e c3bd 2cb7 cd3d e09d 4f3f
000003c0: 670c fb3c 23ae 983c 3a3a 213e 9619 5dbc
000003d0: 79a9 cc3e 2a8b 14bd e641 97bb a0bd f13d
000003e0: dc30 033e c7fe 4e3d 8334 fbbb 477a 16bd
000003f0: 0893 78bd 4ecc 483b ec26 13be d872 b03e

while/MatMul f4 [150, 50]
-0.122533545 -0.18348134 -0.4083376 -0.16586621 -0.17099793 -0.3235353 -0.087848514 -0.077758476
-0.24354015 -0.45692432 -0.09593818 -0.18199082 0.14882419 -0.06463848 -0.017362501 -0.13779391
-0.24101713 -0.3503599 -0.12839852 -0.03313548 0.019186454 0.11110682 -0.3122712 -0.32307148
-0.06686174 -0.056301106 -0.3546316 -0.06669841 -0.17196763 0.35368606 -0.23511033 -0.27287444
-0.084972 -0.045577955 -0.23290417 0.07043776 -0.06787439 -0.027364586 -0.19448738 -0.071267106
0.3346488 -0.036814976 -0.22315215 -0.16628286 -0.03976168 0.08197675 -0.35242775 0.03841046
-0.2469142 -0.0340486 0.1892345 -0.12904279 -0.29401103 -0.112392046 0.121627 -0.22235866
-0.62242347 0.13172606 0.11127253 -0.26000252 -0.28414226 -0.19113408 -0.031498957 -0.6519089
-0.08475378 0.20243503 0.61911106 0.002869785 0.07137098 -0.44970295 -0.58223724 -0.16894777
0.009668717 0.16834056 -0.091848545 -0.1542907 0.27036247 -0.36193156 -0.09158429 -0.17033847
-0.36063066 -0.24784882 -0.097281344 -0.0458711 0.056383196 -0.08112942 -0.055623848 -0.09300173
-0.29290473 -0.32444036 -0.23539712 -0.19867514 -0.03227666 0.22580458 -0.113029554 0.06710656
-0.18462037 0.29496086 -0.098922335 0.1329686 -0.056022555 -0.048257273 0.10131757 -0.05832125
-0.01473791 0.048025362 -0.2945633 0.23274007 0.17863403 -0.06749454 0.015197971 -0.17610401
0.34832224 -0.08312571 -0.1193604 -0.028095946 0.01277865 -0.13852316 -0.089121595 -0.0364811
-0.02542387 -0.13168037 0.25453228 -0.14511557 -0.29990634 0.34049177 0.12831415 -0.34408852
0.15783705 -0.13798076 -0.26807874 -0.08188766 -0.25011885 -0.31715047 -0.0876785 -0.02064667
-0.16855708 -0.08787482 -0.02898357 -0.08784534 0.05936629 -0.07742398 0.1665342 -0.080381736
-0.029958474 -0.018167732 -0.42548677 0.16493842 -0.04987479 -0.1302386 -0.03373651 -0.02907349
-0.03171988 -0.035038978 0.09763679 -0.031220678 -0.100124724 0.030249387 -0.0809738 -0.031902965
-0.10783661 -0.055687115 0.06941088 -0.14597458 0.1562942 0.10949489 0.22558151 -0.07189301
-0.04739321 -0.2141261 -0.07198917 -0.021878008 0.009731274 -0.03376358 -0.02972746 0.20635329
-0.031826537 0.016772438 -0.021364829 -0.25626817 -0.0681136 -0.14819364 -0.023767048 -0.13173035
-0.074509956 -0.11193652 0.005049001 -0.00051674654 -0.03448992 -0.19736761 -0.18567042 -0.17813553
0.03253826 -0.07331962 -0.047988676 0.11954884 -0.032580927 0.02494541 0.12633477 0.10023923
-0.0904448 0.108403906 0.066962905 -0.14540721 0.021666238 -0.27753806 -0.24767613 -0.39773536
-0.039669104 -0.07390775 0.18973538 -0.47988915 0.46067035 -0.010541608 -0.038922284 0.17681724
0.27330104 0.0015245337 -0.095287174 -0.13764003 -0.3214514 0.04634204 0.031192595 -0.25215617
-0.2941394 -0.34818503 0.020644689 -0.06931551 -0.2749694 -0.29095998 -0.59539175 -0.5404642
0.006082011 -0.1463427 0.09600593 -0.54622424 -0.15519476 0.03320299 -0.36143544 -0.105113566
-0.03172501 -0.11385257 -0.17915297 0.12684925 -0.32369745 0.0071358113 0.08484252 0.1389711
-0.06568161 0.069029905 -0.3684364 -0.29507062 -0.04605267 -0.15467554 0.03299252 0.04078455
00000000: def2 fabd 88e2 3bbe a011 d1be d5d8 29be
00000010: 151a 2fbe 6ba6 a5be ece9 b3bd d63f 9fbd
00000020: 9762 79be fcf1 e9be 3d7b c4bd cd5b 3abe
00000030: 5e65 183e 2e61 84bd ce3b 8ebc d919 0dbe
00000040: 32cd 76be 5f62 b3be e77a 03be 12b9 07bd
00000050: e92c 9d3c f98b e33d 03e2 9fbe a069 a5be
00000060: cfee 88bd fd9b 66bd 4692 b5be 2d99 88bd
00000070: 4818 30be 5716 b53e c3c0 70be 33b6 8bbe
00000080: cd05 aebd f3af 3abd 6e7e 6ebe ac41 903d
00000090: ba01 8bbd b22b e0bc b327 47be 7df4 91bd
000000a0: 1657 ab3e 4dcb 16bd ff81 64be 0e46 2abe
000000b0: 25dd 22bd 6de3 a73d 6971 b4be 4954 1d3d
000000c0: 13d7 7cbe 8b76 0bbd b0c6 413e cb23 04be
000000d0: 9d88 96be cd2d e6bd 9417 f93d fdb1 63be
000000e0: 2557 1fbf 32e3 063e dae2 e33d 0d1f 85be
000000f0: 187b 91be a7b8 43be 0d05 01bd 80e3 26bf
00000100: 6493 adbd 214b 4f3e 107e 1e3f 0113 3c3b
00000110: f32a 923d 773f e6be 800d 15bf a500 2dbe
00000120: 8a69 1e3c 7861 2c3e 171b bcbd 62fe 1dbe
00000130: f36c 8a3e 184f b9be 8b90 bbbd 356d 2ebe
00000140: 95a4 b8be 15cc 7dbe 713b c7bd 56e3 3bbd
00000150: 11f2 663d 2e27 a6bd d5d5 63bd b177 bebd
00000160: 9cf7 95be 0c1d a6be f10b 71be 7f71 4bbe
00000170: 8834 04bd 5139 673e 0a7c e7bd 2a6f 893d
00000180: 1f0d 3dbe 1c05 973e cb97 cabd ec28 083e
00000190: e877 65bd 6ba9 45bd 967f cf3d 43e2 6ebd
000001a0: 4677 71bc 3eb6 443d 00d1 96be 6a53 6e3e
000001b0: d7eb 363e 943a 8abd e900 793c 9c54 34be
000001c0: 4b57 b23e d03d aabd 3a73 f4bd 7829 e6bc
000001d0: 8b5d 513c 04d9 0dbe 6285 b6bd 356d 15bd
000001e0: b845 d0bc 38d7 06be 0e52 823e 2d99 14be
000001f0: 538d 99be f054 ae3e c964 033e 5f2c b0be
00000200: 09a0 213e d44a 0dbe 9e41 89be b8b4 a7bd
00000210: 940f 80be 8c61 a2be c990 b3bd 3523 a9bc
00000220: 3a9a 2cbe b7f7 b3bd f46e edbc 42e8 b3bd
00000230: 112a 733d 7790 9ebd f187 2a3e 2e9f a4bd
00000240: 796b f5bc 7fd4 94bc 67d9 d9be 9ee5 283e
00000250: 8249 4cbd 445d 05be 4b2f 0abd 872b eebc
00000260: b4ec 01bd 0885 0fbd ccf5 c73d 82c2 ffbc
00000270: 310e cdbd 90cd f73c 97d5 a5bd afac 02bd
00000280: 71d9 dcbd 2c18 64bd 4b27 8e3d 5c7a 15be
00000290: 960b 203e db3e e03d d7fe 663e a43c 93bd
000002a0: 621f 42bd df43 5bbe 0f6f 93bd 8239 b3bc
000002b0: ec6f 1f3c ae4b 0abd 0187 f3bc 474e 533e
000002c0: 8b5c 02bd 5a66 893c 4b05 afbc 9535 83be
000002d0: 257f 8bbd 13c0 17be 1db3 c2bc 52e4 06be
000002e0: ad98 98bd f93e e5bd 1772 a53b 4676 07ba
000002f0: 4d45 0dbd bc1a 4abe 6320 3ebe 2969 36be
00000300: d746 053d 9928 96bd c68f 44bd 06d6 f43d
00000310: 9473 05bd 515a cc3c e75d 013e 3a4a cd3d
00000320: 203b b9bd de02 de3d d923 893d a1e5 14be
00000330: 657d b13c 7819 8ebe d09e 7dbe f8a3 cbbe
00000340: 127c 22bd f25c 97bd fe49 423e 08b4 f5be
00000350: fcdc eb3e b5b6 2cbc f96c 1fbd 940f 353e
00000360: 1dee 8b3e ddd2 c73a ec25 c3bd 82f1 0cbe
00000370: 4795 a4be 27d1 3d3d 9d87 ff3c 9d1a 81be
00000380: 7099 96be 4f45 b2be 0d1f a93c 4af5 8dbd
00000390: cac8 8cbe b5f8 94be 986b 18bf dd5b 0abf
000003a0: 9b4b c73b dcda 15be c29e c43d 5ad5 0bbf
000003b0: 60eb 1ebe dcff 073d 110e b9be c845 d7bd
000003c0: 16f2 01bd 892b e9bd e073 37be c5e4 013e
000003d0: acbb a5be 86d3 e93b eac1 ad3d 714e 0e3e
000003e0: 1484 86bd 8d5f 8d3d b2a3 bcbe 7f13 97be
000003f0: b9a1 3cbd 4463 1ebe 2a23 073d b30d 273d
